<?xml version="1.0" ?>
<net name="torch-jit-export" version="11">
	<layers>
		<layer id="3" name="input_ids" type="Parameter" version="opset1">
			<data shape="1,384" element_type="i64"/>
			<rt_info>
				<attribute name="fused_names" version="0" value="input_ids"/>
				<attribute name="old_api_map_element_type" version="0" value="i32"/>
			</rt_info>
			<output>
				<port id="0" precision="I64" names="input_ids">
					<dim>1</dim>
					<dim>384</dim>
					<rt_info>
						<attribute name="layout" version="0" layout="[N,C]"/>
					</rt_info>
				</port>
			</output>
		</layer>
		<layer id="2" name="attention_mask" type="Parameter" version="opset1">
			<data shape="1,384" element_type="i64"/>
			<rt_info>
				<attribute name="fused_names" version="0" value="attention_mask"/>
				<attribute name="old_api_map_element_type" version="0" value="i32"/>
			</rt_info>
			<output>
				<port id="0" precision="I64" names="attention_mask">
					<dim>1</dim>
					<dim>384</dim>
					<rt_info>
						<attribute name="layout" version="0" layout="[N,C]"/>
					</rt_info>
				</port>
			</output>
		</layer>
		<layer id="1" name="token_type_ids" type="Parameter" version="opset1">
			<data shape="1,384" element_type="i64"/>
			<rt_info>
				<attribute name="fused_names" version="0" value="token_type_ids"/>
				<attribute name="old_api_map_element_type" version="0" value="i32"/>
			</rt_info>
			<output>
				<port id="0" precision="I64" names="token_type_ids">
					<dim>1</dim>
					<dim>384</dim>
					<rt_info>
						<attribute name="layout" version="0" layout="[N,C]"/>
					</rt_info>
				</port>
			</output>
		</layer>
		<layer id="0" name="position_ids" type="Parameter" version="opset1">
			<data shape="1,384" element_type="i64"/>
			<rt_info>
				<attribute name="fused_names" version="0" value="position_ids"/>
				<attribute name="old_api_map_element_type" version="0" value="i32"/>
			</rt_info>
			<output>
				<port id="0" precision="I64" names="position_ids">
					<dim>1</dim>
					<dim>384</dim>
					<rt_info>
						<attribute name="layout" version="0" layout="[N,C]"/>
					</rt_info>
				</port>
			</output>
		</layer>
		<layer id="4" name="nncf_module.bert.embeddings.word_embeddings.embedding.weight" type="Const" version="opset1">
			<data element_type="i8" shape="30522, 512" offset="0" size="15627264"/>
			<output>
				<port id="0" precision="I8">
					<dim>30522</dim>
					<dim>512</dim>
				</port>
			</output>
		</layer>
		<layer id="5" name="Convert_21303" type="Convert" version="opset1">
			<data destination_type="f32"/>
			<rt_info>
				<attribute name="fused_names" version="0" value="1075, nncf_module.bert.embeddings.word_embeddings.embedding.weight"/>
			</rt_info>
			<input>
				<port id="0" precision="I8">
					<dim>30522</dim>
					<dim>512</dim>
				</port>
			</input>
			<output>
				<port id="1" precision="FP32">
					<dim>30522</dim>
					<dim>512</dim>
				</port>
			</output>
		</layer>
		<layer id="6" name="Constant_21210_compressed" type="Const" version="opset1">
			<data element_type="f16" shape="1, 1" offset="15627264" size="2"/>
			<output>
				<port id="0" precision="FP16">
					<dim>1</dim>
					<dim>1</dim>
				</port>
			</output>
		</layer>
		<layer id="7" name="Constant_21210" type="Convert" version="opset1">
			<data destination_type="f32"/>
			<rt_info>
				<attribute name="decompression" version="0"/>
			</rt_info>
			<input>
				<port id="0" precision="FP16">
					<dim>1</dim>
					<dim>1</dim>
				</port>
			</input>
			<output>
				<port id="1" precision="FP32">
					<dim>1</dim>
					<dim>1</dim>
				</port>
			</output>
		</layer>
		<layer id="8" name="1075" type="Multiply" version="opset1">
			<data auto_broadcast="numpy"/>
			<rt_info>
				<attribute name="fused_names" version="0" value="1075, nncf_module.bert.embeddings.word_embeddings.embedding.weight"/>
			</rt_info>
			<input>
				<port id="0" precision="FP32">
					<dim>30522</dim>
					<dim>512</dim>
				</port>
				<port id="1" precision="FP32">
					<dim>1</dim>
					<dim>1</dim>
				</port>
			</input>
			<output>
				<port id="2" precision="FP32" names="1075">
					<dim>30522</dim>
					<dim>512</dim>
				</port>
			</output>
		</layer>
		<layer id="9" name="Constant_372" type="Const" version="opset1">
			<data element_type="i64" shape="" offset="15627266" size="8"/>
			<rt_info>
				<attribute name="fused_names" version="0" value="Constant_372"/>
			</rt_info>
			<output>
				<port id="0" precision="I64"/>
			</output>
		</layer>
		<layer id="10" name="1076" type="Gather" version="opset8">
			<data batch_dims="0"/>
			<rt_info>
				<attribute name="fused_names" version="0" value="1076"/>
			</rt_info>
			<input>
				<port id="0" precision="FP32">
					<dim>30522</dim>
					<dim>512</dim>
				</port>
				<port id="1" precision="I64">
					<dim>1</dim>
					<dim>384</dim>
				</port>
				<port id="2" precision="I64"/>
			</input>
			<output>
				<port id="3" precision="FP32" names="1076">
					<dim>1</dim>
					<dim>384</dim>
					<dim>512</dim>
				</port>
			</output>
		</layer>
		<layer id="11" name="nncf_module.bert.embeddings.position_embeddings.embedding.weight" type="Const" version="opset1">
			<data element_type="i8" shape="512, 512" offset="15627274" size="262144"/>
			<output>
				<port id="0" precision="I8">
					<dim>512</dim>
					<dim>512</dim>
				</port>
			</output>
		</layer>
		<layer id="12" name="Convert_21472" type="Convert" version="opset1">
			<data destination_type="f32"/>
			<rt_info>
				<attribute name="fused_names" version="0" value="1079, nncf_module.bert.embeddings.position_embeddings.embedding.weight"/>
			</rt_info>
			<input>
				<port id="0" precision="I8">
					<dim>512</dim>
					<dim>512</dim>
				</port>
			</input>
			<output>
				<port id="1" precision="FP32">
					<dim>512</dim>
					<dim>512</dim>
				</port>
			</output>
		</layer>
		<layer id="13" name="Constant_21379_compressed" type="Const" version="opset1">
			<data element_type="f16" shape="1, 1" offset="15889418" size="2"/>
			<output>
				<port id="0" precision="FP16">
					<dim>1</dim>
					<dim>1</dim>
				</port>
			</output>
		</layer>
		<layer id="14" name="Constant_21379" type="Convert" version="opset1">
			<data destination_type="f32"/>
			<rt_info>
				<attribute name="decompression" version="0"/>
			</rt_info>
			<input>
				<port id="0" precision="FP16">
					<dim>1</dim>
					<dim>1</dim>
				</port>
			</input>
			<output>
				<port id="1" precision="FP32">
					<dim>1</dim>
					<dim>1</dim>
				</port>
			</output>
		</layer>
		<layer id="15" name="1079" type="Multiply" version="opset1">
			<data auto_broadcast="numpy"/>
			<rt_info>
				<attribute name="fused_names" version="0" value="1079, nncf_module.bert.embeddings.position_embeddings.embedding.weight"/>
			</rt_info>
			<input>
				<port id="0" precision="FP32">
					<dim>512</dim>
					<dim>512</dim>
				</port>
				<port id="1" precision="FP32">
					<dim>1</dim>
					<dim>1</dim>
				</port>
			</input>
			<output>
				<port id="2" precision="FP32" names="1079">
					<dim>512</dim>
					<dim>512</dim>
				</port>
			</output>
		</layer>
		<layer id="16" name="Constant_377" type="Const" version="opset1">
			<data element_type="i64" shape="" offset="15627266" size="8"/>
			<rt_info>
				<attribute name="fused_names" version="0" value="Constant_377"/>
			</rt_info>
			<output>
				<port id="0" precision="I64"/>
			</output>
		</layer>
		<layer id="17" name="1080" type="Gather" version="opset8">
			<data batch_dims="0"/>
			<rt_info>
				<attribute name="fused_names" version="0" value="1080"/>
			</rt_info>
			<input>
				<port id="0" precision="FP32">
					<dim>512</dim>
					<dim>512</dim>
				</port>
				<port id="1" precision="I64">
					<dim>1</dim>
					<dim>384</dim>
				</port>
				<port id="2" precision="I64"/>
			</input>
			<output>
				<port id="3" precision="FP32" names="1080">
					<dim>1</dim>
					<dim>384</dim>
					<dim>512</dim>
				</port>
			</output>
		</layer>
		<layer id="18" name="1085" type="Add" version="opset1">
			<data auto_broadcast="numpy"/>
			<rt_info>
				<attribute name="fused_names" version="0" value="1085"/>
			</rt_info>
			<input>
				<port id="0" precision="FP32">
					<dim>1</dim>
					<dim>384</dim>
					<dim>512</dim>
				</port>
				<port id="1" precision="FP32">
					<dim>1</dim>
					<dim>384</dim>
					<dim>512</dim>
				</port>
			</input>
			<output>
				<port id="2" precision="FP32" names="1085">
					<dim>1</dim>
					<dim>384</dim>
					<dim>512</dim>
				</port>
			</output>
		</layer>
		<layer id="19" name="nncf_module.bert.embeddings.token_type_embeddings.embedding.weight" type="Const" version="opset1">
			<data element_type="i8" shape="2, 512" offset="15889420" size="1024"/>
			<output>
				<port id="0" precision="I8">
					<dim>2</dim>
					<dim>512</dim>
				</port>
			</output>
		</layer>
		<layer id="20" name="Convert_21641" type="Convert" version="opset1">
			<data destination_type="f32"/>
			<rt_info>
				<attribute name="fused_names" version="0" value="1083, nncf_module.bert.embeddings.token_type_embeddings.embedding.weight"/>
			</rt_info>
			<input>
				<port id="0" precision="I8">
					<dim>2</dim>
					<dim>512</dim>
				</port>
			</input>
			<output>
				<port id="1" precision="FP32">
					<dim>2</dim>
					<dim>512</dim>
				</port>
			</output>
		</layer>
		<layer id="21" name="Constant_21548_compressed" type="Const" version="opset1">
			<data element_type="f16" shape="1, 1" offset="15890444" size="2"/>
			<output>
				<port id="0" precision="FP16">
					<dim>1</dim>
					<dim>1</dim>
				</port>
			</output>
		</layer>
		<layer id="22" name="Constant_21548" type="Convert" version="opset1">
			<data destination_type="f32"/>
			<rt_info>
				<attribute name="decompression" version="0"/>
			</rt_info>
			<input>
				<port id="0" precision="FP16">
					<dim>1</dim>
					<dim>1</dim>
				</port>
			</input>
			<output>
				<port id="1" precision="FP32">
					<dim>1</dim>
					<dim>1</dim>
				</port>
			</output>
		</layer>
		<layer id="23" name="1083" type="Multiply" version="opset1">
			<data auto_broadcast="numpy"/>
			<rt_info>
				<attribute name="fused_names" version="0" value="1083, nncf_module.bert.embeddings.token_type_embeddings.embedding.weight"/>
			</rt_info>
			<input>
				<port id="0" precision="FP32">
					<dim>2</dim>
					<dim>512</dim>
				</port>
				<port id="1" precision="FP32">
					<dim>1</dim>
					<dim>1</dim>
				</port>
			</input>
			<output>
				<port id="2" precision="FP32" names="1083">
					<dim>2</dim>
					<dim>512</dim>
				</port>
			</output>
		</layer>
		<layer id="24" name="Constant_382" type="Const" version="opset1">
			<data element_type="i64" shape="" offset="15627266" size="8"/>
			<rt_info>
				<attribute name="fused_names" version="0" value="Constant_382"/>
			</rt_info>
			<output>
				<port id="0" precision="I64"/>
			</output>
		</layer>
		<layer id="25" name="1084" type="Gather" version="opset8">
			<data batch_dims="0"/>
			<rt_info>
				<attribute name="fused_names" version="0" value="1084"/>
			</rt_info>
			<input>
				<port id="0" precision="FP32">
					<dim>2</dim>
					<dim>512</dim>
				</port>
				<port id="1" precision="I64">
					<dim>1</dim>
					<dim>384</dim>
				</port>
				<port id="2" precision="I64"/>
			</input>
			<output>
				<port id="3" precision="FP32" names="1084">
					<dim>1</dim>
					<dim>384</dim>
					<dim>512</dim>
				</port>
			</output>
		</layer>
		<layer id="26" name="1086" type="Add" version="opset1">
			<data auto_broadcast="numpy"/>
			<rt_info>
				<attribute name="fused_names" version="0" value="1086"/>
			</rt_info>
			<input>
				<port id="0" precision="FP32">
					<dim>1</dim>
					<dim>384</dim>
					<dim>512</dim>
				</port>
				<port id="1" precision="FP32">
					<dim>1</dim>
					<dim>384</dim>
					<dim>512</dim>
				</port>
			</input>
			<output>
				<port id="2" precision="FP32" names="1086">
					<dim>1</dim>
					<dim>384</dim>
					<dim>512</dim>
				</port>
			</output>
		</layer>
		<layer id="27" name="Constant_386" type="Const" version="opset1">
			<data element_type="i64" shape="1" offset="15890446" size="8"/>
			<rt_info>
				<attribute name="fused_names" version="0" value="Constant_386"/>
			</rt_info>
			<output>
				<port id="0" precision="I64">
					<dim>1</dim>
				</port>
			</output>
		</layer>
		<layer id="28" name="1097" type="MVN" version="opset6">
			<data eps="9.999999960041972e-13" normalize_variance="true" eps_mode="INSIDE_SQRT"/>
			<rt_info>
				<attribute name="fused_names" version="0" value="1088, 1089, 1090, 1092, 1093, 1095, 1096, 1097"/>
			</rt_info>
			<input>
				<port id="0" precision="FP32">
					<dim>1</dim>
					<dim>384</dim>
					<dim>512</dim>
				</port>
				<port id="1" precision="I64">
					<dim>1</dim>
				</port>
			</input>
			<output>
				<port id="2" precision="FP32" names="1097">
					<dim>1</dim>
					<dim>384</dim>
					<dim>512</dim>
				</port>
			</output>
		</layer>
		<layer id="29" name="Constant_19338_compressed" type="Const" version="opset1">
			<data element_type="f16" shape="1, 1, 512" offset="15890454" size="1024"/>
			<output>
				<port id="0" precision="FP16">
					<dim>1</dim>
					<dim>1</dim>
					<dim>512</dim>
				</port>
			</output>
		</layer>
		<layer id="30" name="Constant_19338" type="Convert" version="opset1">
			<data destination_type="f32"/>
			<rt_info>
				<attribute name="decompression" version="0"/>
			</rt_info>
			<input>
				<port id="0" precision="FP16">
					<dim>1</dim>
					<dim>1</dim>
					<dim>512</dim>
				</port>
			</input>
			<output>
				<port id="1" precision="FP32">
					<dim>1</dim>
					<dim>1</dim>
					<dim>512</dim>
				</port>
			</output>
		</layer>
		<layer id="31" name="1098" type="Multiply" version="opset1">
			<data auto_broadcast="numpy"/>
			<rt_info>
				<attribute name="fused_names" version="0" value="1098"/>
			</rt_info>
			<input>
				<port id="0" precision="FP32">
					<dim>1</dim>
					<dim>384</dim>
					<dim>512</dim>
				</port>
				<port id="1" precision="FP32">
					<dim>1</dim>
					<dim>1</dim>
					<dim>512</dim>
				</port>
			</input>
			<output>
				<port id="2" precision="FP32" names="1098">
					<dim>1</dim>
					<dim>384</dim>
					<dim>512</dim>
				</port>
			</output>
		</layer>
		<layer id="32" name="Constant_19339_compressed" type="Const" version="opset1">
			<data element_type="f16" shape="1, 1, 512" offset="15891478" size="1024"/>
			<output>
				<port id="0" precision="FP16">
					<dim>1</dim>
					<dim>1</dim>
					<dim>512</dim>
				</port>
			</output>
		</layer>
		<layer id="33" name="Constant_19339" type="Convert" version="opset1">
			<data destination_type="f32"/>
			<rt_info>
				<attribute name="decompression" version="0"/>
			</rt_info>
			<input>
				<port id="0" precision="FP16">
					<dim>1</dim>
					<dim>1</dim>
					<dim>512</dim>
				</port>
			</input>
			<output>
				<port id="1" precision="FP32">
					<dim>1</dim>
					<dim>1</dim>
					<dim>512</dim>
				</port>
			</output>
		</layer>
		<layer id="34" name="1099" type="Add" version="opset1">
			<data auto_broadcast="numpy"/>
			<rt_info>
				<attribute name="fused_names" version="0" value="1099"/>
			</rt_info>
			<input>
				<port id="0" precision="FP32">
					<dim>1</dim>
					<dim>384</dim>
					<dim>512</dim>
				</port>
				<port id="1" precision="FP32">
					<dim>1</dim>
					<dim>1</dim>
					<dim>512</dim>
				</port>
			</input>
			<output>
				<port id="2" precision="FP32" names="1099">
					<dim>1</dim>
					<dim>384</dim>
					<dim>512</dim>
				</port>
			</output>
		</layer>
		<layer id="35" name="Constant_19340_compressed" type="Const" version="opset1">
			<data element_type="f16" shape="1, 1, 1" offset="15892502" size="2"/>
			<output>
				<port id="0" precision="FP16">
					<dim>1</dim>
					<dim>1</dim>
					<dim>1</dim>
				</port>
			</output>
		</layer>
		<layer id="36" name="Constant_19340" type="Convert" version="opset1">
			<data destination_type="f32"/>
			<rt_info>
				<attribute name="decompression" version="0"/>
			</rt_info>
			<input>
				<port id="0" precision="FP16">
					<dim>1</dim>
					<dim>1</dim>
					<dim>1</dim>
				</port>
			</input>
			<output>
				<port id="1" precision="FP32">
					<dim>1</dim>
					<dim>1</dim>
					<dim>1</dim>
				</port>
			</output>
		</layer>
		<layer id="37" name="Constant_19341_compressed" type="Const" version="opset1">
			<data element_type="f16" shape="1, 1, 1" offset="15892504" size="2"/>
			<output>
				<port id="0" precision="FP16">
					<dim>1</dim>
					<dim>1</dim>
					<dim>1</dim>
				</port>
			</output>
		</layer>
		<layer id="38" name="Constant_19341" type="Convert" version="opset1">
			<data destination_type="f32"/>
			<rt_info>
				<attribute name="decompression" version="0"/>
			</rt_info>
			<input>
				<port id="0" precision="FP16">
					<dim>1</dim>
					<dim>1</dim>
					<dim>1</dim>
				</port>
			</input>
			<output>
				<port id="1" precision="FP32">
					<dim>1</dim>
					<dim>1</dim>
					<dim>1</dim>
				</port>
			</output>
		</layer>
		<layer id="39" name="Constant_19342_compressed" type="Const" version="opset1">
			<data element_type="f16" shape="1, 1, 1" offset="15892502" size="2"/>
			<output>
				<port id="0" precision="FP16">
					<dim>1</dim>
					<dim>1</dim>
					<dim>1</dim>
				</port>
			</output>
		</layer>
		<layer id="40" name="Constant_19342" type="Convert" version="opset1">
			<data destination_type="f32"/>
			<rt_info>
				<attribute name="decompression" version="0"/>
			</rt_info>
			<input>
				<port id="0" precision="FP16">
					<dim>1</dim>
					<dim>1</dim>
					<dim>1</dim>
				</port>
			</input>
			<output>
				<port id="1" precision="FP32">
					<dim>1</dim>
					<dim>1</dim>
					<dim>1</dim>
				</port>
			</output>
		</layer>
		<layer id="41" name="Constant_19343_compressed" type="Const" version="opset1">
			<data element_type="f16" shape="1, 1, 1" offset="15892504" size="2"/>
			<output>
				<port id="0" precision="FP16">
					<dim>1</dim>
					<dim>1</dim>
					<dim>1</dim>
				</port>
			</output>
		</layer>
		<layer id="42" name="Constant_19343" type="Convert" version="opset1">
			<data destination_type="f32"/>
			<rt_info>
				<attribute name="decompression" version="0"/>
			</rt_info>
			<input>
				<port id="0" precision="FP16">
					<dim>1</dim>
					<dim>1</dim>
					<dim>1</dim>
				</port>
			</input>
			<output>
				<port id="1" precision="FP32">
					<dim>1</dim>
					<dim>1</dim>
					<dim>1</dim>
				</port>
			</output>
		</layer>
		<layer id="43" name="1102" type="FakeQuantize" version="opset1">
			<data levels="256" auto_broadcast="numpy"/>
			<rt_info>
				<attribute name="fused_names" version="0" value="1102"/>
			</rt_info>
			<input>
				<port id="0" precision="FP32">
					<dim>1</dim>
					<dim>384</dim>
					<dim>512</dim>
				</port>
				<port id="1" precision="FP32">
					<dim>1</dim>
					<dim>1</dim>
					<dim>1</dim>
				</port>
				<port id="2" precision="FP32">
					<dim>1</dim>
					<dim>1</dim>
					<dim>1</dim>
				</port>
				<port id="3" precision="FP32">
					<dim>1</dim>
					<dim>1</dim>
					<dim>1</dim>
				</port>
				<port id="4" precision="FP32">
					<dim>1</dim>
					<dim>1</dim>
					<dim>1</dim>
				</port>
			</input>
			<output>
				<port id="5" precision="FP32" names="1102">
					<dim>1</dim>
					<dim>384</dim>
					<dim>512</dim>
				</port>
			</output>
		</layer>
		<layer id="44" name="nncf_module.bert.encoder.layer.0.attention.self.query.weight" type="Const" version="opset1">
			<data element_type="i8" shape="512, 512" offset="15892506" size="262144"/>
			<output>
				<port id="0" precision="I8">
					<dim>512</dim>
					<dim>512</dim>
				</port>
			</output>
		</layer>
		<layer id="45" name="Convert_21810" type="Convert" version="opset1">
			<data destination_type="f32"/>
			<rt_info>
				<attribute name="fused_names" version="0" value="1105, nncf_module.bert.encoder.layer.0.attention.self.query.weight"/>
			</rt_info>
			<input>
				<port id="0" precision="I8">
					<dim>512</dim>
					<dim>512</dim>
				</port>
			</input>
			<output>
				<port id="1" precision="FP32">
					<dim>512</dim>
					<dim>512</dim>
				</port>
			</output>
		</layer>
		<layer id="46" name="Constant_21717_compressed" type="Const" version="opset1">
			<data element_type="f16" shape="1, 1" offset="16154650" size="2"/>
			<output>
				<port id="0" precision="FP16">
					<dim>1</dim>
					<dim>1</dim>
				</port>
			</output>
		</layer>
		<layer id="47" name="Constant_21717" type="Convert" version="opset1">
			<data destination_type="f32"/>
			<rt_info>
				<attribute name="decompression" version="0"/>
			</rt_info>
			<input>
				<port id="0" precision="FP16">
					<dim>1</dim>
					<dim>1</dim>
				</port>
			</input>
			<output>
				<port id="1" precision="FP32">
					<dim>1</dim>
					<dim>1</dim>
				</port>
			</output>
		</layer>
		<layer id="48" name="1105" type="Multiply" version="opset1">
			<data auto_broadcast="numpy"/>
			<rt_info>
				<attribute name="fused_names" version="0" value="1105, nncf_module.bert.encoder.layer.0.attention.self.query.weight"/>
			</rt_info>
			<input>
				<port id="0" precision="FP32">
					<dim>512</dim>
					<dim>512</dim>
				</port>
				<port id="1" precision="FP32">
					<dim>1</dim>
					<dim>1</dim>
				</port>
			</input>
			<output>
				<port id="2" precision="FP32" names="1105">
					<dim>512</dim>
					<dim>512</dim>
				</port>
			</output>
		</layer>
		<layer id="49" name="Constant_405" type="Const" version="opset1">
			<data element_type="i64" shape="2" offset="16154652" size="16"/>
			<rt_info>
				<attribute name="fused_names" version="0" value="Constant_405"/>
			</rt_info>
			<output>
				<port id="0" precision="I64">
					<dim>2</dim>
				</port>
			</output>
		</layer>
		<layer id="50" name="1106" type="Transpose" version="opset1">
			<rt_info>
				<attribute name="fused_names" version="0" value="1106"/>
			</rt_info>
			<input>
				<port id="0" precision="FP32">
					<dim>512</dim>
					<dim>512</dim>
				</port>
				<port id="1" precision="I64">
					<dim>2</dim>
				</port>
			</input>
			<output>
				<port id="2" precision="FP32" names="1106">
					<dim>512</dim>
					<dim>512</dim>
				</port>
			</output>
		</layer>
		<layer id="51" name="1107" type="MatMul" version="opset1">
			<data transpose_a="false" transpose_b="false"/>
			<rt_info>
				<attribute name="fused_names" version="0" value="1107"/>
			</rt_info>
			<input>
				<port id="0" precision="FP32">
					<dim>1</dim>
					<dim>384</dim>
					<dim>512</dim>
				</port>
				<port id="1" precision="FP32">
					<dim>512</dim>
					<dim>512</dim>
				</port>
			</input>
			<output>
				<port id="2" precision="FP32" names="1107">
					<dim>1</dim>
					<dim>384</dim>
					<dim>512</dim>
				</port>
			</output>
		</layer>
		<layer id="52" name="Constant_19348_compressed" type="Const" version="opset1">
			<data element_type="f16" shape="1, 1, 512" offset="16154668" size="1024"/>
			<output>
				<port id="0" precision="FP16">
					<dim>1</dim>
					<dim>1</dim>
					<dim>512</dim>
				</port>
			</output>
		</layer>
		<layer id="53" name="Constant_19348" type="Convert" version="opset1">
			<data destination_type="f32"/>
			<rt_info>
				<attribute name="decompression" version="0"/>
			</rt_info>
			<input>
				<port id="0" precision="FP16">
					<dim>1</dim>
					<dim>1</dim>
					<dim>512</dim>
				</port>
			</input>
			<output>
				<port id="1" precision="FP32">
					<dim>1</dim>
					<dim>1</dim>
					<dim>512</dim>
				</port>
			</output>
		</layer>
		<layer id="54" name="1108" type="Add" version="opset1">
			<data auto_broadcast="numpy"/>
			<rt_info>
				<attribute name="fused_names" version="0" value="1108"/>
			</rt_info>
			<input>
				<port id="0" precision="FP32">
					<dim>1</dim>
					<dim>384</dim>
					<dim>512</dim>
				</port>
				<port id="1" precision="FP32">
					<dim>1</dim>
					<dim>1</dim>
					<dim>512</dim>
				</port>
			</input>
			<output>
				<port id="2" precision="FP32" names="1108">
					<dim>1</dim>
					<dim>384</dim>
					<dim>512</dim>
				</port>
			</output>
		</layer>
		<layer id="55" name="1133" type="Const" version="opset1">
			<data element_type="i64" shape="4" offset="16155692" size="32"/>
			<rt_info>
				<attribute name="fused_names" version="0" value="1133, 3370, 3371"/>
			</rt_info>
			<output>
				<port id="0" precision="I64">
					<dim>4</dim>
				</port>
			</output>
		</layer>
		<layer id="56" name="1134" type="Reshape" version="opset1">
			<data special_zero="true"/>
			<rt_info>
				<attribute name="fused_names" version="0" value="1134"/>
			</rt_info>
			<input>
				<port id="0" precision="FP32">
					<dim>1</dim>
					<dim>384</dim>
					<dim>512</dim>
				</port>
				<port id="1" precision="I64">
					<dim>4</dim>
				</port>
			</input>
			<output>
				<port id="2" precision="FP32" names="1134">
					<dim>1</dim>
					<dim>384</dim>
					<dim>8</dim>
					<dim>64</dim>
				</port>
			</output>
		</layer>
		<layer id="57" name="Constant_484" type="Const" version="opset1">
			<data element_type="i64" shape="4" offset="16155724" size="32"/>
			<rt_info>
				<attribute name="fused_names" version="0" value="Constant_484"/>
			</rt_info>
			<output>
				<port id="0" precision="I64">
					<dim>4</dim>
				</port>
			</output>
		</layer>
		<layer id="58" name="1135" type="Transpose" version="opset1">
			<rt_info>
				<attribute name="fused_names" version="0" value="1135"/>
			</rt_info>
			<input>
				<port id="0" precision="FP32">
					<dim>1</dim>
					<dim>384</dim>
					<dim>8</dim>
					<dim>64</dim>
				</port>
				<port id="1" precision="I64">
					<dim>4</dim>
				</port>
			</input>
			<output>
				<port id="2" precision="FP32" names="1135">
					<dim>1</dim>
					<dim>8</dim>
					<dim>384</dim>
					<dim>64</dim>
				</port>
			</output>
		</layer>
		<layer id="59" name="nncf_module.bert.encoder.layer.0.attention.self.key.weight" type="Const" version="opset1">
			<data element_type="i8" shape="512, 512" offset="16155756" size="262144"/>
			<output>
				<port id="0" precision="I8">
					<dim>512</dim>
					<dim>512</dim>
				</port>
			</output>
		</layer>
		<layer id="60" name="Convert_21979" type="Convert" version="opset1">
			<data destination_type="f32"/>
			<rt_info>
				<attribute name="fused_names" version="0" value="1111, nncf_module.bert.encoder.layer.0.attention.self.key.weight"/>
			</rt_info>
			<input>
				<port id="0" precision="I8">
					<dim>512</dim>
					<dim>512</dim>
				</port>
			</input>
			<output>
				<port id="1" precision="FP32">
					<dim>512</dim>
					<dim>512</dim>
				</port>
			</output>
		</layer>
		<layer id="61" name="Constant_21886_compressed" type="Const" version="opset1">
			<data element_type="f16" shape="1, 1" offset="16417900" size="2"/>
			<output>
				<port id="0" precision="FP16">
					<dim>1</dim>
					<dim>1</dim>
				</port>
			</output>
		</layer>
		<layer id="62" name="Constant_21886" type="Convert" version="opset1">
			<data destination_type="f32"/>
			<rt_info>
				<attribute name="decompression" version="0"/>
			</rt_info>
			<input>
				<port id="0" precision="FP16">
					<dim>1</dim>
					<dim>1</dim>
				</port>
			</input>
			<output>
				<port id="1" precision="FP32">
					<dim>1</dim>
					<dim>1</dim>
				</port>
			</output>
		</layer>
		<layer id="63" name="1111" type="Multiply" version="opset1">
			<data auto_broadcast="numpy"/>
			<rt_info>
				<attribute name="fused_names" version="0" value="1111, nncf_module.bert.encoder.layer.0.attention.self.key.weight"/>
			</rt_info>
			<input>
				<port id="0" precision="FP32">
					<dim>512</dim>
					<dim>512</dim>
				</port>
				<port id="1" precision="FP32">
					<dim>1</dim>
					<dim>1</dim>
				</port>
			</input>
			<output>
				<port id="2" precision="FP32" names="1111">
					<dim>512</dim>
					<dim>512</dim>
				</port>
			</output>
		</layer>
		<layer id="64" name="Constant_412" type="Const" version="opset1">
			<data element_type="i64" shape="2" offset="16154652" size="16"/>
			<rt_info>
				<attribute name="fused_names" version="0" value="Constant_412"/>
			</rt_info>
			<output>
				<port id="0" precision="I64">
					<dim>2</dim>
				</port>
			</output>
		</layer>
		<layer id="65" name="1112" type="Transpose" version="opset1">
			<rt_info>
				<attribute name="fused_names" version="0" value="1112"/>
			</rt_info>
			<input>
				<port id="0" precision="FP32">
					<dim>512</dim>
					<dim>512</dim>
				</port>
				<port id="1" precision="I64">
					<dim>2</dim>
				</port>
			</input>
			<output>
				<port id="2" precision="FP32" names="1112">
					<dim>512</dim>
					<dim>512</dim>
				</port>
			</output>
		</layer>
		<layer id="66" name="1113" type="MatMul" version="opset1">
			<data transpose_a="false" transpose_b="false"/>
			<rt_info>
				<attribute name="fused_names" version="0" value="1113"/>
			</rt_info>
			<input>
				<port id="0" precision="FP32">
					<dim>1</dim>
					<dim>384</dim>
					<dim>512</dim>
				</port>
				<port id="1" precision="FP32">
					<dim>512</dim>
					<dim>512</dim>
				</port>
			</input>
			<output>
				<port id="2" precision="FP32" names="1113">
					<dim>1</dim>
					<dim>384</dim>
					<dim>512</dim>
				</port>
			</output>
		</layer>
		<layer id="67" name="Constant_19353_compressed" type="Const" version="opset1">
			<data element_type="f16" shape="1, 1, 512" offset="16417902" size="1024"/>
			<output>
				<port id="0" precision="FP16">
					<dim>1</dim>
					<dim>1</dim>
					<dim>512</dim>
				</port>
			</output>
		</layer>
		<layer id="68" name="Constant_19353" type="Convert" version="opset1">
			<data destination_type="f32"/>
			<rt_info>
				<attribute name="decompression" version="0"/>
			</rt_info>
			<input>
				<port id="0" precision="FP16">
					<dim>1</dim>
					<dim>1</dim>
					<dim>512</dim>
				</port>
			</input>
			<output>
				<port id="1" precision="FP32">
					<dim>1</dim>
					<dim>1</dim>
					<dim>512</dim>
				</port>
			</output>
		</layer>
		<layer id="69" name="1114" type="Add" version="opset1">
			<data auto_broadcast="numpy"/>
			<rt_info>
				<attribute name="fused_names" version="0" value="1114"/>
			</rt_info>
			<input>
				<port id="0" precision="FP32">
					<dim>1</dim>
					<dim>384</dim>
					<dim>512</dim>
				</port>
				<port id="1" precision="FP32">
					<dim>1</dim>
					<dim>1</dim>
					<dim>512</dim>
				</port>
			</input>
			<output>
				<port id="2" precision="FP32" names="1114">
					<dim>1</dim>
					<dim>384</dim>
					<dim>512</dim>
				</port>
			</output>
		</layer>
		<layer id="70" name="1148" type="Const" version="opset1">
			<data element_type="i64" shape="4" offset="16155692" size="32"/>
			<rt_info>
				<attribute name="fused_names" version="0" value="1148, 3372, 3373"/>
			</rt_info>
			<output>
				<port id="0" precision="I64">
					<dim>4</dim>
				</port>
			</output>
		</layer>
		<layer id="71" name="1149" type="Reshape" version="opset1">
			<data special_zero="true"/>
			<rt_info>
				<attribute name="fused_names" version="0" value="1149"/>
			</rt_info>
			<input>
				<port id="0" precision="FP32">
					<dim>1</dim>
					<dim>384</dim>
					<dim>512</dim>
				</port>
				<port id="1" precision="I64">
					<dim>4</dim>
				</port>
			</input>
			<output>
				<port id="2" precision="FP32" names="1149">
					<dim>1</dim>
					<dim>384</dim>
					<dim>8</dim>
					<dim>64</dim>
				</port>
			</output>
		</layer>
		<layer id="72" name="Constant_610" type="Const" version="opset1">
			<data element_type="i64" shape="4" offset="16418926" size="32"/>
			<rt_info>
				<attribute name="fused_names" version="0" value="Constant_610"/>
			</rt_info>
			<output>
				<port id="0" precision="I64">
					<dim>4</dim>
				</port>
			</output>
		</layer>
		<layer id="73" name="1165" type="Transpose" version="opset1">
			<rt_info>
				<attribute name="fused_names" version="0" value="1165"/>
			</rt_info>
			<input>
				<port id="0" precision="FP32">
					<dim>1</dim>
					<dim>384</dim>
					<dim>8</dim>
					<dim>64</dim>
				</port>
				<port id="1" precision="I64">
					<dim>4</dim>
				</port>
			</input>
			<output>
				<port id="2" precision="FP32" names="1165">
					<dim>1</dim>
					<dim>8</dim>
					<dim>64</dim>
					<dim>384</dim>
				</port>
			</output>
		</layer>
		<layer id="74" name="Constant_19354_compressed" type="Const" version="opset1">
			<data element_type="f16" shape="1, 1, 1, 1" offset="16418958" size="2"/>
			<output>
				<port id="0" precision="FP16">
					<dim>1</dim>
					<dim>1</dim>
					<dim>1</dim>
					<dim>1</dim>
				</port>
			</output>
		</layer>
		<layer id="75" name="Constant_19354" type="Convert" version="opset1">
			<data destination_type="f32"/>
			<rt_info>
				<attribute name="decompression" version="0"/>
			</rt_info>
			<input>
				<port id="0" precision="FP16">
					<dim>1</dim>
					<dim>1</dim>
					<dim>1</dim>
					<dim>1</dim>
				</port>
			</input>
			<output>
				<port id="1" precision="FP32">
					<dim>1</dim>
					<dim>1</dim>
					<dim>1</dim>
					<dim>1</dim>
				</port>
			</output>
		</layer>
		<layer id="76" name="Multiply_19190" type="Multiply" version="opset1">
			<data auto_broadcast="numpy"/>
			<rt_info>
				<attribute name="fused_names" version="0" value="1165, 1166, 1167, 1168"/>
			</rt_info>
			<input>
				<port id="0" precision="FP32">
					<dim>1</dim>
					<dim>8</dim>
					<dim>64</dim>
					<dim>384</dim>
				</port>
				<port id="1" precision="FP32">
					<dim>1</dim>
					<dim>1</dim>
					<dim>1</dim>
					<dim>1</dim>
				</port>
			</input>
			<output>
				<port id="2" precision="FP32">
					<dim>1</dim>
					<dim>8</dim>
					<dim>64</dim>
					<dim>384</dim>
				</port>
			</output>
		</layer>
		<layer id="77" name="1168" type="MatMul" version="opset1">
			<data transpose_a="false" transpose_b="false"/>
			<rt_info>
				<attribute name="fused_names" version="0" value="1165, 1166, 1167, 1168"/>
			</rt_info>
			<input>
				<port id="0" precision="FP32">
					<dim>1</dim>
					<dim>8</dim>
					<dim>384</dim>
					<dim>64</dim>
				</port>
				<port id="1" precision="FP32">
					<dim>1</dim>
					<dim>8</dim>
					<dim>64</dim>
					<dim>384</dim>
				</port>
			</input>
			<output>
				<port id="2" precision="FP32" names="1168">
					<dim>1</dim>
					<dim>8</dim>
					<dim>384</dim>
					<dim>384</dim>
				</port>
			</output>
		</layer>
		<layer id="78" name="Constant_19355_compressed" type="Const" version="opset1">
			<data element_type="f16" shape="1, 1, 1, 1" offset="16418960" size="2"/>
			<output>
				<port id="0" precision="FP16">
					<dim>1</dim>
					<dim>1</dim>
					<dim>1</dim>
					<dim>1</dim>
				</port>
			</output>
		</layer>
		<layer id="79" name="Constant_19355" type="Convert" version="opset1">
			<data destination_type="f32"/>
			<rt_info>
				<attribute name="decompression" version="0"/>
			</rt_info>
			<input>
				<port id="0" precision="FP16">
					<dim>1</dim>
					<dim>1</dim>
					<dim>1</dim>
					<dim>1</dim>
				</port>
			</input>
			<output>
				<port id="1" precision="FP32">
					<dim>1</dim>
					<dim>1</dim>
					<dim>1</dim>
					<dim>1</dim>
				</port>
			</output>
		</layer>
		<layer id="80" name="Constant_360" type="Const" version="opset1">
			<data element_type="i64" shape="1" offset="16418962" size="8"/>
			<rt_info>
				<attribute name="fused_names" version="0" value="Constant_360"/>
			</rt_info>
			<output>
				<port id="0" precision="I64">
					<dim>1</dim>
				</port>
			</output>
		</layer>
		<layer id="81" name="1066" type="Unsqueeze" version="opset1">
			<rt_info>
				<attribute name="fused_names" version="0" value="1066"/>
			</rt_info>
			<input>
				<port id="0" precision="I64">
					<dim>1</dim>
					<dim>384</dim>
				</port>
				<port id="1" precision="I64">
					<dim>1</dim>
				</port>
			</input>
			<output>
				<port id="2" precision="I64" names="1066">
					<dim>1</dim>
					<dim>1</dim>
					<dim>384</dim>
				</port>
			</output>
		</layer>
		<layer id="82" name="Constant_362" type="Const" version="opset1">
			<data element_type="i64" shape="1" offset="16418970" size="8"/>
			<rt_info>
				<attribute name="fused_names" version="0" value="Constant_362"/>
			</rt_info>
			<output>
				<port id="0" precision="I64">
					<dim>1</dim>
				</port>
			</output>
		</layer>
		<layer id="83" name="1067" type="Unsqueeze" version="opset1">
			<rt_info>
				<attribute name="fused_names" version="0" value="1067"/>
			</rt_info>
			<input>
				<port id="0" precision="I64">
					<dim>1</dim>
					<dim>1</dim>
					<dim>384</dim>
				</port>
				<port id="1" precision="I64">
					<dim>1</dim>
				</port>
			</input>
			<output>
				<port id="2" precision="I64" names="1067">
					<dim>1</dim>
					<dim>1</dim>
					<dim>1</dim>
					<dim>384</dim>
				</port>
			</output>
		</layer>
		<layer id="84" name="1068" type="Convert" version="opset1">
			<data destination_type="f32"/>
			<rt_info>
				<attribute name="fused_names" version="0" value="1068"/>
			</rt_info>
			<input>
				<port id="0" precision="I64">
					<dim>1</dim>
					<dim>1</dim>
					<dim>1</dim>
					<dim>384</dim>
				</port>
			</input>
			<output>
				<port id="1" precision="FP32" names="1068">
					<dim>1</dim>
					<dim>1</dim>
					<dim>1</dim>
					<dim>384</dim>
				</port>
			</output>
		</layer>
		<layer id="85" name="1070" type="Subtract" version="opset1">
			<data auto_broadcast="numpy"/>
			<rt_info>
				<attribute name="fused_names" version="0" value="1070"/>
			</rt_info>
			<input>
				<port id="0" precision="FP32">
					<dim>1</dim>
					<dim>1</dim>
					<dim>1</dim>
					<dim>1</dim>
				</port>
				<port id="1" precision="FP32">
					<dim>1</dim>
					<dim>1</dim>
					<dim>1</dim>
					<dim>384</dim>
				</port>
			</input>
			<output>
				<port id="2" precision="FP32" names="1070">
					<dim>1</dim>
					<dim>1</dim>
					<dim>1</dim>
					<dim>384</dim>
				</port>
			</output>
		</layer>
		<layer id="86" name="Constant_19356_compressed" type="Const" version="opset1">
			<data element_type="f16" shape="1, 1, 1, 1" offset="16418978" size="2"/>
			<output>
				<port id="0" precision="FP16">
					<dim>1</dim>
					<dim>1</dim>
					<dim>1</dim>
					<dim>1</dim>
				</port>
			</output>
		</layer>
		<layer id="87" name="Constant_19356" type="Convert" version="opset1">
			<data destination_type="f32"/>
			<rt_info>
				<attribute name="decompression" version="0"/>
			</rt_info>
			<input>
				<port id="0" precision="FP16">
					<dim>1</dim>
					<dim>1</dim>
					<dim>1</dim>
					<dim>1</dim>
				</port>
			</input>
			<output>
				<port id="1" precision="FP32">
					<dim>1</dim>
					<dim>1</dim>
					<dim>1</dim>
					<dim>1</dim>
				</port>
			</output>
		</layer>
		<layer id="88" name="1072" type="Multiply" version="opset1">
			<data auto_broadcast="numpy"/>
			<rt_info>
				<attribute name="fused_names" version="0" value="1072"/>
			</rt_info>
			<input>
				<port id="0" precision="FP32">
					<dim>1</dim>
					<dim>1</dim>
					<dim>1</dim>
					<dim>384</dim>
				</port>
				<port id="1" precision="FP32">
					<dim>1</dim>
					<dim>1</dim>
					<dim>1</dim>
					<dim>1</dim>
				</port>
			</input>
			<output>
				<port id="2" precision="FP32" names="1072">
					<dim>1</dim>
					<dim>1</dim>
					<dim>1</dim>
					<dim>384</dim>
				</port>
			</output>
		</layer>
		<layer id="89" name="1169" type="Add" version="opset1">
			<data auto_broadcast="numpy"/>
			<rt_info>
				<attribute name="fused_names" version="0" value="1169"/>
			</rt_info>
			<input>
				<port id="0" precision="FP32">
					<dim>1</dim>
					<dim>8</dim>
					<dim>384</dim>
					<dim>384</dim>
				</port>
				<port id="1" precision="FP32">
					<dim>1</dim>
					<dim>1</dim>
					<dim>1</dim>
					<dim>384</dim>
				</port>
			</input>
			<output>
				<port id="2" precision="FP32" names="1169">
					<dim>1</dim>
					<dim>8</dim>
					<dim>384</dim>
					<dim>384</dim>
				</port>
			</output>
		</layer>
		<layer id="90" name="ShapeOf_616" type="ShapeOf" version="opset1">
			<rt_info>
				<attribute name="fused_names" version="0" value="ShapeOf_616, ShapeOf_671"/>
			</rt_info>
			<input>
				<port id="0" precision="FP32">
					<dim>1</dim>
					<dim>8</dim>
					<dim>384</dim>
					<dim>384</dim>
				</port>
			</input>
			<output>
				<port id="1" precision="I64">
					<dim>4</dim>
				</port>
			</output>
		</layer>
		<layer id="91" name="Constant_619" type="Const" version="opset1">
			<data element_type="i64" shape="1" offset="15627266" size="8"/>
			<rt_info>
				<attribute name="fused_names" version="0" value="Constant_619"/>
			</rt_info>
			<output>
				<port id="0" precision="I64">
					<dim>1</dim>
				</port>
			</output>
		</layer>
		<layer id="92" name="Constant_618" type="Const" version="opset1">
			<data element_type="i64" shape="1" offset="16418980" size="8"/>
			<rt_info>
				<attribute name="fused_names" version="0" value="Constant_618"/>
			</rt_info>
			<output>
				<port id="0" precision="I64">
					<dim>1</dim>
				</port>
			</output>
		</layer>
		<layer id="93" name="Constant_620" type="Const" version="opset1">
			<data element_type="i64" shape="1" offset="16418962" size="8"/>
			<rt_info>
				<attribute name="fused_names" version="0" value="Constant_620"/>
			</rt_info>
			<output>
				<port id="0" precision="I64">
					<dim>1</dim>
				</port>
			</output>
		</layer>
		<layer id="94" name="StridedSlice_621" type="StridedSlice" version="opset1">
			<data begin_mask="0" end_mask="0" new_axis_mask="" shrink_axis_mask="" ellipsis_mask=""/>
			<rt_info>
				<attribute name="fused_names" version="0" value="Constant_618, Constant_619, Constant_620, StridedSlice_621"/>
			</rt_info>
			<input>
				<port id="0" precision="I64">
					<dim>4</dim>
				</port>
				<port id="1" precision="I64">
					<dim>1</dim>
				</port>
				<port id="2" precision="I64">
					<dim>1</dim>
				</port>
				<port id="3" precision="I64">
					<dim>1</dim>
				</port>
			</input>
			<output>
				<port id="4" precision="I64">
					<dim>3</dim>
				</port>
			</output>
		</layer>
		<layer id="95" name="Constant_622" type="Const" version="opset1">
			<data element_type="i64" shape="" offset="15627266" size="8"/>
			<rt_info>
				<attribute name="fused_names" version="0" value="Constant_622"/>
			</rt_info>
			<output>
				<port id="0" precision="I64"/>
			</output>
		</layer>
		<layer id="96" name="ReduceProd_623" type="ReduceProd" version="opset1">
			<data keep_dims="true"/>
			<rt_info>
				<attribute name="fused_names" version="0" value="Constant_622, ReduceProd_623"/>
			</rt_info>
			<input>
				<port id="0" precision="I64">
					<dim>3</dim>
				</port>
				<port id="1" precision="I64"/>
			</input>
			<output>
				<port id="2" precision="I64">
					<dim>1</dim>
				</port>
			</output>
		</layer>
		<layer id="97" name="Constant_624" type="Const" version="opset1">
			<data element_type="i64" shape="1" offset="15890446" size="8"/>
			<rt_info>
				<attribute name="fused_names" version="0" value="Constant_624"/>
			</rt_info>
			<output>
				<port id="0" precision="I64">
					<dim>1</dim>
				</port>
			</output>
		</layer>
		<layer id="98" name="Concat_625" type="Concat" version="opset1">
			<data axis="0"/>
			<rt_info>
				<attribute name="fused_names" version="0" value="Concat_625, Constant_624"/>
			</rt_info>
			<input>
				<port id="0" precision="I64">
					<dim>1</dim>
				</port>
				<port id="1" precision="I64">
					<dim>1</dim>
				</port>
			</input>
			<output>
				<port id="2" precision="I64">
					<dim>2</dim>
				</port>
			</output>
		</layer>
		<layer id="99" name="Reshape_626" type="Reshape" version="opset1">
			<data special_zero="true"/>
			<rt_info>
				<attribute name="fused_names" version="0" value="Reshape_626"/>
			</rt_info>
			<input>
				<port id="0" precision="FP32">
					<dim>1</dim>
					<dim>8</dim>
					<dim>384</dim>
					<dim>384</dim>
				</port>
				<port id="1" precision="I64">
					<dim>2</dim>
				</port>
			</input>
			<output>
				<port id="2" precision="FP32">
					<dim>3072</dim>
					<dim>384</dim>
				</port>
			</output>
		</layer>
		<layer id="100" name="Softmax_670" type="SoftMax" version="opset8">
			<data axis="1"/>
			<rt_info>
				<attribute name="fused_names" version="0" value="Softmax_670"/>
			</rt_info>
			<input>
				<port id="0" precision="FP32">
					<dim>3072</dim>
					<dim>384</dim>
				</port>
			</input>
			<output>
				<port id="1" precision="FP32">
					<dim>3072</dim>
					<dim>384</dim>
				</port>
			</output>
		</layer>
		<layer id="101" name="1170" type="Reshape" version="opset1">
			<data special_zero="false"/>
			<rt_info>
				<attribute name="fused_names" version="0" value="1170"/>
			</rt_info>
			<input>
				<port id="0" precision="FP32">
					<dim>3072</dim>
					<dim>384</dim>
				</port>
				<port id="1" precision="I64">
					<dim>4</dim>
				</port>
			</input>
			<output>
				<port id="2" precision="FP32" names="1170">
					<dim>1</dim>
					<dim>8</dim>
					<dim>384</dim>
					<dim>384</dim>
				</port>
			</output>
		</layer>
		<layer id="102" name="nncf_module.bert.encoder.layer.0.attention.self.value.weight" type="Const" version="opset1">
			<data element_type="i8" shape="512, 512" offset="16418988" size="262144"/>
			<output>
				<port id="0" precision="I8">
					<dim>512</dim>
					<dim>512</dim>
				</port>
			</output>
		</layer>
		<layer id="103" name="Convert_22148" type="Convert" version="opset1">
			<data destination_type="f32"/>
			<rt_info>
				<attribute name="fused_names" version="0" value="1117, nncf_module.bert.encoder.layer.0.attention.self.value.weight"/>
			</rt_info>
			<input>
				<port id="0" precision="I8">
					<dim>512</dim>
					<dim>512</dim>
				</port>
			</input>
			<output>
				<port id="1" precision="FP32">
					<dim>512</dim>
					<dim>512</dim>
				</port>
			</output>
		</layer>
		<layer id="104" name="Constant_22055_compressed" type="Const" version="opset1">
			<data element_type="f16" shape="1, 1" offset="16681132" size="2"/>
			<output>
				<port id="0" precision="FP16">
					<dim>1</dim>
					<dim>1</dim>
				</port>
			</output>
		</layer>
		<layer id="105" name="Constant_22055" type="Convert" version="opset1">
			<data destination_type="f32"/>
			<rt_info>
				<attribute name="decompression" version="0"/>
			</rt_info>
			<input>
				<port id="0" precision="FP16">
					<dim>1</dim>
					<dim>1</dim>
				</port>
			</input>
			<output>
				<port id="1" precision="FP32">
					<dim>1</dim>
					<dim>1</dim>
				</port>
			</output>
		</layer>
		<layer id="106" name="1117" type="Multiply" version="opset1">
			<data auto_broadcast="numpy"/>
			<rt_info>
				<attribute name="fused_names" version="0" value="1117, nncf_module.bert.encoder.layer.0.attention.self.value.weight"/>
			</rt_info>
			<input>
				<port id="0" precision="FP32">
					<dim>512</dim>
					<dim>512</dim>
				</port>
				<port id="1" precision="FP32">
					<dim>1</dim>
					<dim>1</dim>
				</port>
			</input>
			<output>
				<port id="2" precision="FP32" names="1117">
					<dim>512</dim>
					<dim>512</dim>
				</port>
			</output>
		</layer>
		<layer id="107" name="Constant_419" type="Const" version="opset1">
			<data element_type="i64" shape="2" offset="16154652" size="16"/>
			<rt_info>
				<attribute name="fused_names" version="0" value="Constant_419"/>
			</rt_info>
			<output>
				<port id="0" precision="I64">
					<dim>2</dim>
				</port>
			</output>
		</layer>
		<layer id="108" name="1118" type="Transpose" version="opset1">
			<rt_info>
				<attribute name="fused_names" version="0" value="1118"/>
			</rt_info>
			<input>
				<port id="0" precision="FP32">
					<dim>512</dim>
					<dim>512</dim>
				</port>
				<port id="1" precision="I64">
					<dim>2</dim>
				</port>
			</input>
			<output>
				<port id="2" precision="FP32" names="1118">
					<dim>512</dim>
					<dim>512</dim>
				</port>
			</output>
		</layer>
		<layer id="109" name="1119" type="MatMul" version="opset1">
			<data transpose_a="false" transpose_b="false"/>
			<rt_info>
				<attribute name="fused_names" version="0" value="1119"/>
			</rt_info>
			<input>
				<port id="0" precision="FP32">
					<dim>1</dim>
					<dim>384</dim>
					<dim>512</dim>
				</port>
				<port id="1" precision="FP32">
					<dim>512</dim>
					<dim>512</dim>
				</port>
			</input>
			<output>
				<port id="2" precision="FP32" names="1119">
					<dim>1</dim>
					<dim>384</dim>
					<dim>512</dim>
				</port>
			</output>
		</layer>
		<layer id="110" name="Constant_19361_compressed" type="Const" version="opset1">
			<data element_type="f16" shape="1, 1, 512" offset="16681134" size="1024"/>
			<output>
				<port id="0" precision="FP16">
					<dim>1</dim>
					<dim>1</dim>
					<dim>512</dim>
				</port>
			</output>
		</layer>
		<layer id="111" name="Constant_19361" type="Convert" version="opset1">
			<data destination_type="f32"/>
			<rt_info>
				<attribute name="decompression" version="0"/>
			</rt_info>
			<input>
				<port id="0" precision="FP16">
					<dim>1</dim>
					<dim>1</dim>
					<dim>512</dim>
				</port>
			</input>
			<output>
				<port id="1" precision="FP32">
					<dim>1</dim>
					<dim>1</dim>
					<dim>512</dim>
				</port>
			</output>
		</layer>
		<layer id="112" name="1120" type="Add" version="opset1">
			<data auto_broadcast="numpy"/>
			<rt_info>
				<attribute name="fused_names" version="0" value="1120"/>
			</rt_info>
			<input>
				<port id="0" precision="FP32">
					<dim>1</dim>
					<dim>384</dim>
					<dim>512</dim>
				</port>
				<port id="1" precision="FP32">
					<dim>1</dim>
					<dim>1</dim>
					<dim>512</dim>
				</port>
			</input>
			<output>
				<port id="2" precision="FP32" names="1120">
					<dim>1</dim>
					<dim>384</dim>
					<dim>512</dim>
				</port>
			</output>
		</layer>
		<layer id="113" name="1162" type="Const" version="opset1">
			<data element_type="i64" shape="4" offset="16155692" size="32"/>
			<rt_info>
				<attribute name="fused_names" version="0" value="1162, 3374, 3375"/>
			</rt_info>
			<output>
				<port id="0" precision="I64">
					<dim>4</dim>
				</port>
			</output>
		</layer>
		<layer id="114" name="1163" type="Reshape" version="opset1">
			<data special_zero="true"/>
			<rt_info>
				<attribute name="fused_names" version="0" value="1163"/>
			</rt_info>
			<input>
				<port id="0" precision="FP32">
					<dim>1</dim>
					<dim>384</dim>
					<dim>512</dim>
				</port>
				<port id="1" precision="I64">
					<dim>4</dim>
				</port>
			</input>
			<output>
				<port id="2" precision="FP32" names="1163">
					<dim>1</dim>
					<dim>384</dim>
					<dim>8</dim>
					<dim>64</dim>
				</port>
			</output>
		</layer>
		<layer id="115" name="Constant_608" type="Const" version="opset1">
			<data element_type="i64" shape="4" offset="16155724" size="32"/>
			<rt_info>
				<attribute name="fused_names" version="0" value="Constant_608"/>
			</rt_info>
			<output>
				<port id="0" precision="I64">
					<dim>4</dim>
				</port>
			</output>
		</layer>
		<layer id="116" name="1164" type="Transpose" version="opset1">
			<rt_info>
				<attribute name="fused_names" version="0" value="1164"/>
			</rt_info>
			<input>
				<port id="0" precision="FP32">
					<dim>1</dim>
					<dim>384</dim>
					<dim>8</dim>
					<dim>64</dim>
				</port>
				<port id="1" precision="I64">
					<dim>4</dim>
				</port>
			</input>
			<output>
				<port id="2" precision="FP32" names="1164">
					<dim>1</dim>
					<dim>8</dim>
					<dim>384</dim>
					<dim>64</dim>
				</port>
			</output>
		</layer>
		<layer id="117" name="1171" type="MatMul" version="opset1">
			<data transpose_a="false" transpose_b="false"/>
			<rt_info>
				<attribute name="fused_names" version="0" value="1171"/>
			</rt_info>
			<input>
				<port id="0" precision="FP32">
					<dim>1</dim>
					<dim>8</dim>
					<dim>384</dim>
					<dim>384</dim>
				</port>
				<port id="1" precision="FP32">
					<dim>1</dim>
					<dim>8</dim>
					<dim>384</dim>
					<dim>64</dim>
				</port>
			</input>
			<output>
				<port id="2" precision="FP32" names="1171">
					<dim>1</dim>
					<dim>8</dim>
					<dim>384</dim>
					<dim>64</dim>
				</port>
			</output>
		</layer>
		<layer id="118" name="Constant_19362_compressed" type="Const" version="opset1">
			<data element_type="f16" shape="1, 1, 1, 1" offset="16682158" size="2"/>
			<output>
				<port id="0" precision="FP16">
					<dim>1</dim>
					<dim>1</dim>
					<dim>1</dim>
					<dim>1</dim>
				</port>
			</output>
		</layer>
		<layer id="119" name="Constant_19362" type="Convert" version="opset1">
			<data destination_type="f32"/>
			<rt_info>
				<attribute name="decompression" version="0"/>
			</rt_info>
			<input>
				<port id="0" precision="FP16">
					<dim>1</dim>
					<dim>1</dim>
					<dim>1</dim>
					<dim>1</dim>
				</port>
			</input>
			<output>
				<port id="1" precision="FP32">
					<dim>1</dim>
					<dim>1</dim>
					<dim>1</dim>
					<dim>1</dim>
				</port>
			</output>
		</layer>
		<layer id="120" name="Constant_19363_compressed" type="Const" version="opset1">
			<data element_type="f16" shape="1, 1, 1, 1" offset="16682160" size="2"/>
			<output>
				<port id="0" precision="FP16">
					<dim>1</dim>
					<dim>1</dim>
					<dim>1</dim>
					<dim>1</dim>
				</port>
			</output>
		</layer>
		<layer id="121" name="Constant_19363" type="Convert" version="opset1">
			<data destination_type="f32"/>
			<rt_info>
				<attribute name="decompression" version="0"/>
			</rt_info>
			<input>
				<port id="0" precision="FP16">
					<dim>1</dim>
					<dim>1</dim>
					<dim>1</dim>
					<dim>1</dim>
				</port>
			</input>
			<output>
				<port id="1" precision="FP32">
					<dim>1</dim>
					<dim>1</dim>
					<dim>1</dim>
					<dim>1</dim>
				</port>
			</output>
		</layer>
		<layer id="122" name="Constant_19364_compressed" type="Const" version="opset1">
			<data element_type="f16" shape="1, 1, 1, 1" offset="16682158" size="2"/>
			<output>
				<port id="0" precision="FP16">
					<dim>1</dim>
					<dim>1</dim>
					<dim>1</dim>
					<dim>1</dim>
				</port>
			</output>
		</layer>
		<layer id="123" name="Constant_19364" type="Convert" version="opset1">
			<data destination_type="f32"/>
			<rt_info>
				<attribute name="decompression" version="0"/>
			</rt_info>
			<input>
				<port id="0" precision="FP16">
					<dim>1</dim>
					<dim>1</dim>
					<dim>1</dim>
					<dim>1</dim>
				</port>
			</input>
			<output>
				<port id="1" precision="FP32">
					<dim>1</dim>
					<dim>1</dim>
					<dim>1</dim>
					<dim>1</dim>
				</port>
			</output>
		</layer>
		<layer id="124" name="Constant_19365_compressed" type="Const" version="opset1">
			<data element_type="f16" shape="1, 1, 1, 1" offset="16682160" size="2"/>
			<output>
				<port id="0" precision="FP16">
					<dim>1</dim>
					<dim>1</dim>
					<dim>1</dim>
					<dim>1</dim>
				</port>
			</output>
		</layer>
		<layer id="125" name="Constant_19365" type="Convert" version="opset1">
			<data destination_type="f32"/>
			<rt_info>
				<attribute name="decompression" version="0"/>
			</rt_info>
			<input>
				<port id="0" precision="FP16">
					<dim>1</dim>
					<dim>1</dim>
					<dim>1</dim>
					<dim>1</dim>
				</port>
			</input>
			<output>
				<port id="1" precision="FP32">
					<dim>1</dim>
					<dim>1</dim>
					<dim>1</dim>
					<dim>1</dim>
				</port>
			</output>
		</layer>
		<layer id="126" name="1174" type="FakeQuantize" version="opset1">
			<data levels="256" auto_broadcast="numpy"/>
			<rt_info>
				<attribute name="fused_names" version="0" value="1174"/>
			</rt_info>
			<input>
				<port id="0" precision="FP32">
					<dim>1</dim>
					<dim>8</dim>
					<dim>384</dim>
					<dim>64</dim>
				</port>
				<port id="1" precision="FP32">
					<dim>1</dim>
					<dim>1</dim>
					<dim>1</dim>
					<dim>1</dim>
				</port>
				<port id="2" precision="FP32">
					<dim>1</dim>
					<dim>1</dim>
					<dim>1</dim>
					<dim>1</dim>
				</port>
				<port id="3" precision="FP32">
					<dim>1</dim>
					<dim>1</dim>
					<dim>1</dim>
					<dim>1</dim>
				</port>
				<port id="4" precision="FP32">
					<dim>1</dim>
					<dim>1</dim>
					<dim>1</dim>
					<dim>1</dim>
				</port>
			</input>
			<output>
				<port id="5" precision="FP32" names="1174">
					<dim>1</dim>
					<dim>8</dim>
					<dim>384</dim>
					<dim>64</dim>
				</port>
			</output>
		</layer>
		<layer id="127" name="Constant_682" type="Const" version="opset1">
			<data element_type="i64" shape="4" offset="16155724" size="32"/>
			<rt_info>
				<attribute name="fused_names" version="0" value="Constant_682"/>
			</rt_info>
			<output>
				<port id="0" precision="I64">
					<dim>4</dim>
				</port>
			</output>
		</layer>
		<layer id="128" name="1175" type="Transpose" version="opset1">
			<rt_info>
				<attribute name="fused_names" version="0" value="1175"/>
			</rt_info>
			<input>
				<port id="0" precision="FP32">
					<dim>1</dim>
					<dim>8</dim>
					<dim>384</dim>
					<dim>64</dim>
				</port>
				<port id="1" precision="I64">
					<dim>4</dim>
				</port>
			</input>
			<output>
				<port id="2" precision="FP32" names="1175">
					<dim>1</dim>
					<dim>384</dim>
					<dim>8</dim>
					<dim>64</dim>
				</port>
			</output>
		</layer>
		<layer id="129" name="1186" type="Const" version="opset1">
			<data element_type="i64" shape="3" offset="16682162" size="24"/>
			<rt_info>
				<attribute name="fused_names" version="0" value="1186, 3376"/>
			</rt_info>
			<output>
				<port id="0" precision="I64">
					<dim>3</dim>
				</port>
			</output>
		</layer>
		<layer id="130" name="1187" type="Reshape" version="opset1">
			<data special_zero="true"/>
			<rt_info>
				<attribute name="fused_names" version="0" value="1187"/>
			</rt_info>
			<input>
				<port id="0" precision="FP32">
					<dim>1</dim>
					<dim>384</dim>
					<dim>8</dim>
					<dim>64</dim>
				</port>
				<port id="1" precision="I64">
					<dim>3</dim>
				</port>
			</input>
			<output>
				<port id="2" precision="FP32" names="1187">
					<dim>1</dim>
					<dim>384</dim>
					<dim>512</dim>
				</port>
			</output>
		</layer>
		<layer id="131" name="nncf_module.bert.encoder.layer.0.attention.output.dense.weight" type="Const" version="opset1">
			<data element_type="i8" shape="512, 512" offset="16682186" size="262144"/>
			<output>
				<port id="0" precision="I8">
					<dim>512</dim>
					<dim>512</dim>
				</port>
			</output>
		</layer>
		<layer id="132" name="Convert_22317" type="Convert" version="opset1">
			<data destination_type="f32"/>
			<rt_info>
				<attribute name="fused_names" version="0" value="1190, nncf_module.bert.encoder.layer.0.attention.output.dense.weight"/>
			</rt_info>
			<input>
				<port id="0" precision="I8">
					<dim>512</dim>
					<dim>512</dim>
				</port>
			</input>
			<output>
				<port id="1" precision="FP32">
					<dim>512</dim>
					<dim>512</dim>
				</port>
			</output>
		</layer>
		<layer id="133" name="Constant_22224_compressed" type="Const" version="opset1">
			<data element_type="f16" shape="1, 1" offset="16944330" size="2"/>
			<output>
				<port id="0" precision="FP16">
					<dim>1</dim>
					<dim>1</dim>
				</port>
			</output>
		</layer>
		<layer id="134" name="Constant_22224" type="Convert" version="opset1">
			<data destination_type="f32"/>
			<rt_info>
				<attribute name="decompression" version="0"/>
			</rt_info>
			<input>
				<port id="0" precision="FP16">
					<dim>1</dim>
					<dim>1</dim>
				</port>
			</input>
			<output>
				<port id="1" precision="FP32">
					<dim>1</dim>
					<dim>1</dim>
				</port>
			</output>
		</layer>
		<layer id="135" name="1190" type="Multiply" version="opset1">
			<data auto_broadcast="numpy"/>
			<rt_info>
				<attribute name="fused_names" version="0" value="1190, nncf_module.bert.encoder.layer.0.attention.output.dense.weight"/>
			</rt_info>
			<input>
				<port id="0" precision="FP32">
					<dim>512</dim>
					<dim>512</dim>
				</port>
				<port id="1" precision="FP32">
					<dim>1</dim>
					<dim>1</dim>
				</port>
			</input>
			<output>
				<port id="2" precision="FP32" names="1190">
					<dim>512</dim>
					<dim>512</dim>
				</port>
			</output>
		</layer>
		<layer id="136" name="Constant_745" type="Const" version="opset1">
			<data element_type="i64" shape="2" offset="16154652" size="16"/>
			<rt_info>
				<attribute name="fused_names" version="0" value="Constant_745"/>
			</rt_info>
			<output>
				<port id="0" precision="I64">
					<dim>2</dim>
				</port>
			</output>
		</layer>
		<layer id="137" name="1191" type="Transpose" version="opset1">
			<rt_info>
				<attribute name="fused_names" version="0" value="1191"/>
			</rt_info>
			<input>
				<port id="0" precision="FP32">
					<dim>512</dim>
					<dim>512</dim>
				</port>
				<port id="1" precision="I64">
					<dim>2</dim>
				</port>
			</input>
			<output>
				<port id="2" precision="FP32" names="1191">
					<dim>512</dim>
					<dim>512</dim>
				</port>
			</output>
		</layer>
		<layer id="138" name="1192" type="MatMul" version="opset1">
			<data transpose_a="false" transpose_b="false"/>
			<rt_info>
				<attribute name="fused_names" version="0" value="1192"/>
			</rt_info>
			<input>
				<port id="0" precision="FP32">
					<dim>1</dim>
					<dim>384</dim>
					<dim>512</dim>
				</port>
				<port id="1" precision="FP32">
					<dim>512</dim>
					<dim>512</dim>
				</port>
			</input>
			<output>
				<port id="2" precision="FP32" names="1192">
					<dim>1</dim>
					<dim>384</dim>
					<dim>512</dim>
				</port>
			</output>
		</layer>
		<layer id="139" name="Constant_19370_compressed" type="Const" version="opset1">
			<data element_type="f16" shape="1, 1, 512" offset="16944332" size="1024"/>
			<output>
				<port id="0" precision="FP16">
					<dim>1</dim>
					<dim>1</dim>
					<dim>512</dim>
				</port>
			</output>
		</layer>
		<layer id="140" name="Constant_19370" type="Convert" version="opset1">
			<data destination_type="f32"/>
			<rt_info>
				<attribute name="decompression" version="0"/>
			</rt_info>
			<input>
				<port id="0" precision="FP16">
					<dim>1</dim>
					<dim>1</dim>
					<dim>512</dim>
				</port>
			</input>
			<output>
				<port id="1" precision="FP32">
					<dim>1</dim>
					<dim>1</dim>
					<dim>512</dim>
				</port>
			</output>
		</layer>
		<layer id="141" name="1193" type="Add" version="opset1">
			<data auto_broadcast="numpy"/>
			<rt_info>
				<attribute name="fused_names" version="0" value="1193"/>
			</rt_info>
			<input>
				<port id="0" precision="FP32">
					<dim>1</dim>
					<dim>384</dim>
					<dim>512</dim>
				</port>
				<port id="1" precision="FP32">
					<dim>1</dim>
					<dim>1</dim>
					<dim>512</dim>
				</port>
			</input>
			<output>
				<port id="2" precision="FP32" names="1193">
					<dim>1</dim>
					<dim>384</dim>
					<dim>512</dim>
				</port>
			</output>
		</layer>
		<layer id="142" name="Constant_19371_compressed" type="Const" version="opset1">
			<data element_type="f16" shape="1, 1, 1" offset="16945356" size="2"/>
			<output>
				<port id="0" precision="FP16">
					<dim>1</dim>
					<dim>1</dim>
					<dim>1</dim>
				</port>
			</output>
		</layer>
		<layer id="143" name="Constant_19371" type="Convert" version="opset1">
			<data destination_type="f32"/>
			<rt_info>
				<attribute name="decompression" version="0"/>
			</rt_info>
			<input>
				<port id="0" precision="FP16">
					<dim>1</dim>
					<dim>1</dim>
					<dim>1</dim>
				</port>
			</input>
			<output>
				<port id="1" precision="FP32">
					<dim>1</dim>
					<dim>1</dim>
					<dim>1</dim>
				</port>
			</output>
		</layer>
		<layer id="144" name="Constant_19372_compressed" type="Const" version="opset1">
			<data element_type="f16" shape="1, 1, 1" offset="16945358" size="2"/>
			<output>
				<port id="0" precision="FP16">
					<dim>1</dim>
					<dim>1</dim>
					<dim>1</dim>
				</port>
			</output>
		</layer>
		<layer id="145" name="Constant_19372" type="Convert" version="opset1">
			<data destination_type="f32"/>
			<rt_info>
				<attribute name="decompression" version="0"/>
			</rt_info>
			<input>
				<port id="0" precision="FP16">
					<dim>1</dim>
					<dim>1</dim>
					<dim>1</dim>
				</port>
			</input>
			<output>
				<port id="1" precision="FP32">
					<dim>1</dim>
					<dim>1</dim>
					<dim>1</dim>
				</port>
			</output>
		</layer>
		<layer id="146" name="Constant_19373_compressed" type="Const" version="opset1">
			<data element_type="f16" shape="1, 1, 1" offset="16945356" size="2"/>
			<output>
				<port id="0" precision="FP16">
					<dim>1</dim>
					<dim>1</dim>
					<dim>1</dim>
				</port>
			</output>
		</layer>
		<layer id="147" name="Constant_19373" type="Convert" version="opset1">
			<data destination_type="f32"/>
			<rt_info>
				<attribute name="decompression" version="0"/>
			</rt_info>
			<input>
				<port id="0" precision="FP16">
					<dim>1</dim>
					<dim>1</dim>
					<dim>1</dim>
				</port>
			</input>
			<output>
				<port id="1" precision="FP32">
					<dim>1</dim>
					<dim>1</dim>
					<dim>1</dim>
				</port>
			</output>
		</layer>
		<layer id="148" name="Constant_19374_compressed" type="Const" version="opset1">
			<data element_type="f16" shape="1, 1, 1" offset="16945358" size="2"/>
			<output>
				<port id="0" precision="FP16">
					<dim>1</dim>
					<dim>1</dim>
					<dim>1</dim>
				</port>
			</output>
		</layer>
		<layer id="149" name="Constant_19374" type="Convert" version="opset1">
			<data destination_type="f32"/>
			<rt_info>
				<attribute name="decompression" version="0"/>
			</rt_info>
			<input>
				<port id="0" precision="FP16">
					<dim>1</dim>
					<dim>1</dim>
					<dim>1</dim>
				</port>
			</input>
			<output>
				<port id="1" precision="FP32">
					<dim>1</dim>
					<dim>1</dim>
					<dim>1</dim>
				</port>
			</output>
		</layer>
		<layer id="150" name="1196" type="FakeQuantize" version="opset1">
			<data levels="256" auto_broadcast="numpy"/>
			<rt_info>
				<attribute name="fused_names" version="0" value="1196"/>
			</rt_info>
			<input>
				<port id="0" precision="FP32">
					<dim>1</dim>
					<dim>384</dim>
					<dim>512</dim>
				</port>
				<port id="1" precision="FP32">
					<dim>1</dim>
					<dim>1</dim>
					<dim>1</dim>
				</port>
				<port id="2" precision="FP32">
					<dim>1</dim>
					<dim>1</dim>
					<dim>1</dim>
				</port>
				<port id="3" precision="FP32">
					<dim>1</dim>
					<dim>1</dim>
					<dim>1</dim>
				</port>
				<port id="4" precision="FP32">
					<dim>1</dim>
					<dim>1</dim>
					<dim>1</dim>
				</port>
			</input>
			<output>
				<port id="5" precision="FP32" names="1196">
					<dim>1</dim>
					<dim>384</dim>
					<dim>512</dim>
				</port>
			</output>
		</layer>
		<layer id="151" name="1197" type="Add" version="opset1">
			<data auto_broadcast="numpy"/>
			<rt_info>
				<attribute name="fused_names" version="0" value="1197"/>
			</rt_info>
			<input>
				<port id="0" precision="FP32">
					<dim>1</dim>
					<dim>384</dim>
					<dim>512</dim>
				</port>
				<port id="1" precision="FP32">
					<dim>1</dim>
					<dim>384</dim>
					<dim>512</dim>
				</port>
			</input>
			<output>
				<port id="2" precision="FP32" names="1197">
					<dim>1</dim>
					<dim>384</dim>
					<dim>512</dim>
				</port>
			</output>
		</layer>
		<layer id="152" name="Constant_753" type="Const" version="opset1">
			<data element_type="i64" shape="1" offset="15890446" size="8"/>
			<rt_info>
				<attribute name="fused_names" version="0" value="Constant_753"/>
			</rt_info>
			<output>
				<port id="0" precision="I64">
					<dim>1</dim>
				</port>
			</output>
		</layer>
		<layer id="153" name="1208" type="MVN" version="opset6">
			<data eps="9.999999960041972e-13" normalize_variance="true" eps_mode="INSIDE_SQRT"/>
			<rt_info>
				<attribute name="fused_names" version="0" value="1199, 1200, 1201, 1203, 1204, 1206, 1207, 1208"/>
			</rt_info>
			<input>
				<port id="0" precision="FP32">
					<dim>1</dim>
					<dim>384</dim>
					<dim>512</dim>
				</port>
				<port id="1" precision="I64">
					<dim>1</dim>
				</port>
			</input>
			<output>
				<port id="2" precision="FP32" names="1208">
					<dim>1</dim>
					<dim>384</dim>
					<dim>512</dim>
				</port>
			</output>
		</layer>
		<layer id="154" name="Constant_19375_compressed" type="Const" version="opset1">
			<data element_type="f16" shape="1, 1, 512" offset="16945360" size="1024"/>
			<output>
				<port id="0" precision="FP16">
					<dim>1</dim>
					<dim>1</dim>
					<dim>512</dim>
				</port>
			</output>
		</layer>
		<layer id="155" name="Constant_19375" type="Convert" version="opset1">
			<data destination_type="f32"/>
			<rt_info>
				<attribute name="decompression" version="0"/>
			</rt_info>
			<input>
				<port id="0" precision="FP16">
					<dim>1</dim>
					<dim>1</dim>
					<dim>512</dim>
				</port>
			</input>
			<output>
				<port id="1" precision="FP32">
					<dim>1</dim>
					<dim>1</dim>
					<dim>512</dim>
				</port>
			</output>
		</layer>
		<layer id="156" name="1209" type="Multiply" version="opset1">
			<data auto_broadcast="numpy"/>
			<rt_info>
				<attribute name="fused_names" version="0" value="1209"/>
			</rt_info>
			<input>
				<port id="0" precision="FP32">
					<dim>1</dim>
					<dim>384</dim>
					<dim>512</dim>
				</port>
				<port id="1" precision="FP32">
					<dim>1</dim>
					<dim>1</dim>
					<dim>512</dim>
				</port>
			</input>
			<output>
				<port id="2" precision="FP32" names="1209">
					<dim>1</dim>
					<dim>384</dim>
					<dim>512</dim>
				</port>
			</output>
		</layer>
		<layer id="157" name="Constant_19376_compressed" type="Const" version="opset1">
			<data element_type="f16" shape="1, 1, 512" offset="16946384" size="1024"/>
			<output>
				<port id="0" precision="FP16">
					<dim>1</dim>
					<dim>1</dim>
					<dim>512</dim>
				</port>
			</output>
		</layer>
		<layer id="158" name="Constant_19376" type="Convert" version="opset1">
			<data destination_type="f32"/>
			<rt_info>
				<attribute name="decompression" version="0"/>
			</rt_info>
			<input>
				<port id="0" precision="FP16">
					<dim>1</dim>
					<dim>1</dim>
					<dim>512</dim>
				</port>
			</input>
			<output>
				<port id="1" precision="FP32">
					<dim>1</dim>
					<dim>1</dim>
					<dim>512</dim>
				</port>
			</output>
		</layer>
		<layer id="159" name="1210" type="Add" version="opset1">
			<data auto_broadcast="numpy"/>
			<rt_info>
				<attribute name="fused_names" version="0" value="1210"/>
			</rt_info>
			<input>
				<port id="0" precision="FP32">
					<dim>1</dim>
					<dim>384</dim>
					<dim>512</dim>
				</port>
				<port id="1" precision="FP32">
					<dim>1</dim>
					<dim>1</dim>
					<dim>512</dim>
				</port>
			</input>
			<output>
				<port id="2" precision="FP32" names="1210">
					<dim>1</dim>
					<dim>384</dim>
					<dim>512</dim>
				</port>
			</output>
		</layer>
		<layer id="160" name="Constant_19377_compressed" type="Const" version="opset1">
			<data element_type="f16" shape="1, 1, 1" offset="16947408" size="2"/>
			<output>
				<port id="0" precision="FP16">
					<dim>1</dim>
					<dim>1</dim>
					<dim>1</dim>
				</port>
			</output>
		</layer>
		<layer id="161" name="Constant_19377" type="Convert" version="opset1">
			<data destination_type="f32"/>
			<rt_info>
				<attribute name="decompression" version="0"/>
			</rt_info>
			<input>
				<port id="0" precision="FP16">
					<dim>1</dim>
					<dim>1</dim>
					<dim>1</dim>
				</port>
			</input>
			<output>
				<port id="1" precision="FP32">
					<dim>1</dim>
					<dim>1</dim>
					<dim>1</dim>
				</port>
			</output>
		</layer>
		<layer id="162" name="Constant_19378_compressed" type="Const" version="opset1">
			<data element_type="f16" shape="1, 1, 1" offset="16947410" size="2"/>
			<output>
				<port id="0" precision="FP16">
					<dim>1</dim>
					<dim>1</dim>
					<dim>1</dim>
				</port>
			</output>
		</layer>
		<layer id="163" name="Constant_19378" type="Convert" version="opset1">
			<data destination_type="f32"/>
			<rt_info>
				<attribute name="decompression" version="0"/>
			</rt_info>
			<input>
				<port id="0" precision="FP16">
					<dim>1</dim>
					<dim>1</dim>
					<dim>1</dim>
				</port>
			</input>
			<output>
				<port id="1" precision="FP32">
					<dim>1</dim>
					<dim>1</dim>
					<dim>1</dim>
				</port>
			</output>
		</layer>
		<layer id="164" name="Constant_19379_compressed" type="Const" version="opset1">
			<data element_type="f16" shape="1, 1, 1" offset="16947408" size="2"/>
			<output>
				<port id="0" precision="FP16">
					<dim>1</dim>
					<dim>1</dim>
					<dim>1</dim>
				</port>
			</output>
		</layer>
		<layer id="165" name="Constant_19379" type="Convert" version="opset1">
			<data destination_type="f32"/>
			<rt_info>
				<attribute name="decompression" version="0"/>
			</rt_info>
			<input>
				<port id="0" precision="FP16">
					<dim>1</dim>
					<dim>1</dim>
					<dim>1</dim>
				</port>
			</input>
			<output>
				<port id="1" precision="FP32">
					<dim>1</dim>
					<dim>1</dim>
					<dim>1</dim>
				</port>
			</output>
		</layer>
		<layer id="166" name="Constant_19380_compressed" type="Const" version="opset1">
			<data element_type="f16" shape="1, 1, 1" offset="16947410" size="2"/>
			<output>
				<port id="0" precision="FP16">
					<dim>1</dim>
					<dim>1</dim>
					<dim>1</dim>
				</port>
			</output>
		</layer>
		<layer id="167" name="Constant_19380" type="Convert" version="opset1">
			<data destination_type="f32"/>
			<rt_info>
				<attribute name="decompression" version="0"/>
			</rt_info>
			<input>
				<port id="0" precision="FP16">
					<dim>1</dim>
					<dim>1</dim>
					<dim>1</dim>
				</port>
			</input>
			<output>
				<port id="1" precision="FP32">
					<dim>1</dim>
					<dim>1</dim>
					<dim>1</dim>
				</port>
			</output>
		</layer>
		<layer id="168" name="1213" type="FakeQuantize" version="opset1">
			<data levels="256" auto_broadcast="numpy"/>
			<rt_info>
				<attribute name="fused_names" version="0" value="1213"/>
			</rt_info>
			<input>
				<port id="0" precision="FP32">
					<dim>1</dim>
					<dim>384</dim>
					<dim>512</dim>
				</port>
				<port id="1" precision="FP32">
					<dim>1</dim>
					<dim>1</dim>
					<dim>1</dim>
				</port>
				<port id="2" precision="FP32">
					<dim>1</dim>
					<dim>1</dim>
					<dim>1</dim>
				</port>
				<port id="3" precision="FP32">
					<dim>1</dim>
					<dim>1</dim>
					<dim>1</dim>
				</port>
				<port id="4" precision="FP32">
					<dim>1</dim>
					<dim>1</dim>
					<dim>1</dim>
				</port>
			</input>
			<output>
				<port id="5" precision="FP32" names="1213">
					<dim>1</dim>
					<dim>384</dim>
					<dim>512</dim>
				</port>
			</output>
		</layer>
		<layer id="169" name="nncf_module.bert.encoder.layer.0.intermediate.denses.0.weight" type="Const" version="opset1">
			<data element_type="i8" shape="512, 512" offset="16947412" size="262144"/>
			<output>
				<port id="0" precision="I8">
					<dim>512</dim>
					<dim>512</dim>
				</port>
			</output>
		</layer>
		<layer id="170" name="Convert_22486" type="Convert" version="opset1">
			<data destination_type="f32"/>
			<rt_info>
				<attribute name="fused_names" version="0" value="1216, nncf_module.bert.encoder.layer.0.intermediate.denses.0.weight"/>
			</rt_info>
			<input>
				<port id="0" precision="I8">
					<dim>512</dim>
					<dim>512</dim>
				</port>
			</input>
			<output>
				<port id="1" precision="FP32">
					<dim>512</dim>
					<dim>512</dim>
				</port>
			</output>
		</layer>
		<layer id="171" name="Constant_22393_compressed" type="Const" version="opset1">
			<data element_type="f16" shape="1, 1" offset="17209556" size="2"/>
			<output>
				<port id="0" precision="FP16">
					<dim>1</dim>
					<dim>1</dim>
				</port>
			</output>
		</layer>
		<layer id="172" name="Constant_22393" type="Convert" version="opset1">
			<data destination_type="f32"/>
			<rt_info>
				<attribute name="decompression" version="0"/>
			</rt_info>
			<input>
				<port id="0" precision="FP16">
					<dim>1</dim>
					<dim>1</dim>
				</port>
			</input>
			<output>
				<port id="1" precision="FP32">
					<dim>1</dim>
					<dim>1</dim>
				</port>
			</output>
		</layer>
		<layer id="173" name="1216" type="Multiply" version="opset1">
			<data auto_broadcast="numpy"/>
			<rt_info>
				<attribute name="fused_names" version="0" value="1216, nncf_module.bert.encoder.layer.0.intermediate.denses.0.weight"/>
			</rt_info>
			<input>
				<port id="0" precision="FP32">
					<dim>512</dim>
					<dim>512</dim>
				</port>
				<port id="1" precision="FP32">
					<dim>1</dim>
					<dim>1</dim>
				</port>
			</input>
			<output>
				<port id="2" precision="FP32" names="1216">
					<dim>512</dim>
					<dim>512</dim>
				</port>
			</output>
		</layer>
		<layer id="174" name="Constant_772" type="Const" version="opset1">
			<data element_type="i64" shape="2" offset="16154652" size="16"/>
			<rt_info>
				<attribute name="fused_names" version="0" value="Constant_772"/>
			</rt_info>
			<output>
				<port id="0" precision="I64">
					<dim>2</dim>
				</port>
			</output>
		</layer>
		<layer id="175" name="1217" type="Transpose" version="opset1">
			<rt_info>
				<attribute name="fused_names" version="0" value="1217"/>
			</rt_info>
			<input>
				<port id="0" precision="FP32">
					<dim>512</dim>
					<dim>512</dim>
				</port>
				<port id="1" precision="I64">
					<dim>2</dim>
				</port>
			</input>
			<output>
				<port id="2" precision="FP32" names="1217">
					<dim>512</dim>
					<dim>512</dim>
				</port>
			</output>
		</layer>
		<layer id="176" name="1218" type="MatMul" version="opset1">
			<data transpose_a="false" transpose_b="false"/>
			<rt_info>
				<attribute name="fused_names" version="0" value="1218"/>
			</rt_info>
			<input>
				<port id="0" precision="FP32">
					<dim>1</dim>
					<dim>384</dim>
					<dim>512</dim>
				</port>
				<port id="1" precision="FP32">
					<dim>512</dim>
					<dim>512</dim>
				</port>
			</input>
			<output>
				<port id="2" precision="FP32" names="1218">
					<dim>1</dim>
					<dim>384</dim>
					<dim>512</dim>
				</port>
			</output>
		</layer>
		<layer id="177" name="Constant_19385_compressed" type="Const" version="opset1">
			<data element_type="f16" shape="1, 1, 512" offset="17209558" size="1024"/>
			<output>
				<port id="0" precision="FP16">
					<dim>1</dim>
					<dim>1</dim>
					<dim>512</dim>
				</port>
			</output>
		</layer>
		<layer id="178" name="Constant_19385" type="Convert" version="opset1">
			<data destination_type="f32"/>
			<rt_info>
				<attribute name="decompression" version="0"/>
			</rt_info>
			<input>
				<port id="0" precision="FP16">
					<dim>1</dim>
					<dim>1</dim>
					<dim>512</dim>
				</port>
			</input>
			<output>
				<port id="1" precision="FP32">
					<dim>1</dim>
					<dim>1</dim>
					<dim>512</dim>
				</port>
			</output>
		</layer>
		<layer id="179" name="1219" type="Add" version="opset1">
			<data auto_broadcast="numpy"/>
			<rt_info>
				<attribute name="fused_names" version="0" value="1219"/>
			</rt_info>
			<input>
				<port id="0" precision="FP32">
					<dim>1</dim>
					<dim>384</dim>
					<dim>512</dim>
				</port>
				<port id="1" precision="FP32">
					<dim>1</dim>
					<dim>1</dim>
					<dim>512</dim>
				</port>
			</input>
			<output>
				<port id="2" precision="FP32" names="1219">
					<dim>1</dim>
					<dim>384</dim>
					<dim>512</dim>
				</port>
			</output>
		</layer>
		<layer id="180" name="1227" type="Gelu" version="opset7">
			<data approximation_mode="ERF"/>
			<rt_info>
				<attribute name="fused_names" version="0" value="1221, 1222, 1224, 1225, 1227"/>
			</rt_info>
			<input>
				<port id="0" precision="FP32">
					<dim>1</dim>
					<dim>384</dim>
					<dim>512</dim>
				</port>
			</input>
			<output>
				<port id="1" precision="FP32" names="1227">
					<dim>1</dim>
					<dim>384</dim>
					<dim>512</dim>
				</port>
			</output>
		</layer>
		<layer id="181" name="Constant_19386_compressed" type="Const" version="opset1">
			<data element_type="f16" shape="1, 1, 1" offset="17210582" size="2"/>
			<output>
				<port id="0" precision="FP16">
					<dim>1</dim>
					<dim>1</dim>
					<dim>1</dim>
				</port>
			</output>
		</layer>
		<layer id="182" name="Constant_19386" type="Convert" version="opset1">
			<data destination_type="f32"/>
			<rt_info>
				<attribute name="decompression" version="0"/>
			</rt_info>
			<input>
				<port id="0" precision="FP16">
					<dim>1</dim>
					<dim>1</dim>
					<dim>1</dim>
				</port>
			</input>
			<output>
				<port id="1" precision="FP32">
					<dim>1</dim>
					<dim>1</dim>
					<dim>1</dim>
				</port>
			</output>
		</layer>
		<layer id="183" name="Constant_19387_compressed" type="Const" version="opset1">
			<data element_type="f16" shape="1, 1, 1" offset="17210584" size="2"/>
			<output>
				<port id="0" precision="FP16">
					<dim>1</dim>
					<dim>1</dim>
					<dim>1</dim>
				</port>
			</output>
		</layer>
		<layer id="184" name="Constant_19387" type="Convert" version="opset1">
			<data destination_type="f32"/>
			<rt_info>
				<attribute name="decompression" version="0"/>
			</rt_info>
			<input>
				<port id="0" precision="FP16">
					<dim>1</dim>
					<dim>1</dim>
					<dim>1</dim>
				</port>
			</input>
			<output>
				<port id="1" precision="FP32">
					<dim>1</dim>
					<dim>1</dim>
					<dim>1</dim>
				</port>
			</output>
		</layer>
		<layer id="185" name="Constant_19388_compressed" type="Const" version="opset1">
			<data element_type="f16" shape="1, 1, 1" offset="17210582" size="2"/>
			<output>
				<port id="0" precision="FP16">
					<dim>1</dim>
					<dim>1</dim>
					<dim>1</dim>
				</port>
			</output>
		</layer>
		<layer id="186" name="Constant_19388" type="Convert" version="opset1">
			<data destination_type="f32"/>
			<rt_info>
				<attribute name="decompression" version="0"/>
			</rt_info>
			<input>
				<port id="0" precision="FP16">
					<dim>1</dim>
					<dim>1</dim>
					<dim>1</dim>
				</port>
			</input>
			<output>
				<port id="1" precision="FP32">
					<dim>1</dim>
					<dim>1</dim>
					<dim>1</dim>
				</port>
			</output>
		</layer>
		<layer id="187" name="Constant_19389_compressed" type="Const" version="opset1">
			<data element_type="f16" shape="1, 1, 1" offset="17210584" size="2"/>
			<output>
				<port id="0" precision="FP16">
					<dim>1</dim>
					<dim>1</dim>
					<dim>1</dim>
				</port>
			</output>
		</layer>
		<layer id="188" name="Constant_19389" type="Convert" version="opset1">
			<data destination_type="f32"/>
			<rt_info>
				<attribute name="decompression" version="0"/>
			</rt_info>
			<input>
				<port id="0" precision="FP16">
					<dim>1</dim>
					<dim>1</dim>
					<dim>1</dim>
				</port>
			</input>
			<output>
				<port id="1" precision="FP32">
					<dim>1</dim>
					<dim>1</dim>
					<dim>1</dim>
				</port>
			</output>
		</layer>
		<layer id="189" name="1230" type="FakeQuantize" version="opset1">
			<data levels="256" auto_broadcast="numpy"/>
			<rt_info>
				<attribute name="fused_names" version="0" value="1230"/>
			</rt_info>
			<input>
				<port id="0" precision="FP32">
					<dim>1</dim>
					<dim>384</dim>
					<dim>512</dim>
				</port>
				<port id="1" precision="FP32">
					<dim>1</dim>
					<dim>1</dim>
					<dim>1</dim>
				</port>
				<port id="2" precision="FP32">
					<dim>1</dim>
					<dim>1</dim>
					<dim>1</dim>
				</port>
				<port id="3" precision="FP32">
					<dim>1</dim>
					<dim>1</dim>
					<dim>1</dim>
				</port>
				<port id="4" precision="FP32">
					<dim>1</dim>
					<dim>1</dim>
					<dim>1</dim>
				</port>
			</input>
			<output>
				<port id="5" precision="FP32" names="1230">
					<dim>1</dim>
					<dim>384</dim>
					<dim>512</dim>
				</port>
			</output>
		</layer>
		<layer id="190" name="nncf_module.bert.encoder.layer.0.intermediate.denses.1.weight" type="Const" version="opset1">
			<data element_type="i8" shape="512, 512" offset="17210586" size="262144"/>
			<output>
				<port id="0" precision="I8">
					<dim>512</dim>
					<dim>512</dim>
				</port>
			</output>
		</layer>
		<layer id="191" name="Convert_22655" type="Convert" version="opset1">
			<data destination_type="f32"/>
			<rt_info>
				<attribute name="fused_names" version="0" value="1233, nncf_module.bert.encoder.layer.0.intermediate.denses.1.weight"/>
			</rt_info>
			<input>
				<port id="0" precision="I8">
					<dim>512</dim>
					<dim>512</dim>
				</port>
			</input>
			<output>
				<port id="1" precision="FP32">
					<dim>512</dim>
					<dim>512</dim>
				</port>
			</output>
		</layer>
		<layer id="192" name="Constant_22562_compressed" type="Const" version="opset1">
			<data element_type="f16" shape="1, 1" offset="17472730" size="2"/>
			<output>
				<port id="0" precision="FP16">
					<dim>1</dim>
					<dim>1</dim>
				</port>
			</output>
		</layer>
		<layer id="193" name="Constant_22562" type="Convert" version="opset1">
			<data destination_type="f32"/>
			<rt_info>
				<attribute name="decompression" version="0"/>
			</rt_info>
			<input>
				<port id="0" precision="FP16">
					<dim>1</dim>
					<dim>1</dim>
				</port>
			</input>
			<output>
				<port id="1" precision="FP32">
					<dim>1</dim>
					<dim>1</dim>
				</port>
			</output>
		</layer>
		<layer id="194" name="1233" type="Multiply" version="opset1">
			<data auto_broadcast="numpy"/>
			<rt_info>
				<attribute name="fused_names" version="0" value="1233, nncf_module.bert.encoder.layer.0.intermediate.denses.1.weight"/>
			</rt_info>
			<input>
				<port id="0" precision="FP32">
					<dim>512</dim>
					<dim>512</dim>
				</port>
				<port id="1" precision="FP32">
					<dim>1</dim>
					<dim>1</dim>
				</port>
			</input>
			<output>
				<port id="2" precision="FP32" names="1233">
					<dim>512</dim>
					<dim>512</dim>
				</port>
			</output>
		</layer>
		<layer id="195" name="Constant_790" type="Const" version="opset1">
			<data element_type="i64" shape="2" offset="16154652" size="16"/>
			<rt_info>
				<attribute name="fused_names" version="0" value="Constant_790"/>
			</rt_info>
			<output>
				<port id="0" precision="I64">
					<dim>2</dim>
				</port>
			</output>
		</layer>
		<layer id="196" name="1234" type="Transpose" version="opset1">
			<rt_info>
				<attribute name="fused_names" version="0" value="1234"/>
			</rt_info>
			<input>
				<port id="0" precision="FP32">
					<dim>512</dim>
					<dim>512</dim>
				</port>
				<port id="1" precision="I64">
					<dim>2</dim>
				</port>
			</input>
			<output>
				<port id="2" precision="FP32" names="1234">
					<dim>512</dim>
					<dim>512</dim>
				</port>
			</output>
		</layer>
		<layer id="197" name="1235" type="MatMul" version="opset1">
			<data transpose_a="false" transpose_b="false"/>
			<rt_info>
				<attribute name="fused_names" version="0" value="1235"/>
			</rt_info>
			<input>
				<port id="0" precision="FP32">
					<dim>1</dim>
					<dim>384</dim>
					<dim>512</dim>
				</port>
				<port id="1" precision="FP32">
					<dim>512</dim>
					<dim>512</dim>
				</port>
			</input>
			<output>
				<port id="2" precision="FP32" names="1235">
					<dim>1</dim>
					<dim>384</dim>
					<dim>512</dim>
				</port>
			</output>
		</layer>
		<layer id="198" name="Constant_19394_compressed" type="Const" version="opset1">
			<data element_type="f16" shape="1, 1, 512" offset="17472732" size="1024"/>
			<output>
				<port id="0" precision="FP16">
					<dim>1</dim>
					<dim>1</dim>
					<dim>512</dim>
				</port>
			</output>
		</layer>
		<layer id="199" name="Constant_19394" type="Convert" version="opset1">
			<data destination_type="f32"/>
			<rt_info>
				<attribute name="decompression" version="0"/>
			</rt_info>
			<input>
				<port id="0" precision="FP16">
					<dim>1</dim>
					<dim>1</dim>
					<dim>512</dim>
				</port>
			</input>
			<output>
				<port id="1" precision="FP32">
					<dim>1</dim>
					<dim>1</dim>
					<dim>512</dim>
				</port>
			</output>
		</layer>
		<layer id="200" name="1236" type="Add" version="opset1">
			<data auto_broadcast="numpy"/>
			<rt_info>
				<attribute name="fused_names" version="0" value="1236"/>
			</rt_info>
			<input>
				<port id="0" precision="FP32">
					<dim>1</dim>
					<dim>384</dim>
					<dim>512</dim>
				</port>
				<port id="1" precision="FP32">
					<dim>1</dim>
					<dim>1</dim>
					<dim>512</dim>
				</port>
			</input>
			<output>
				<port id="2" precision="FP32" names="1236">
					<dim>1</dim>
					<dim>384</dim>
					<dim>512</dim>
				</port>
			</output>
		</layer>
		<layer id="201" name="1244" type="Gelu" version="opset7">
			<data approximation_mode="ERF"/>
			<rt_info>
				<attribute name="fused_names" version="0" value="1238, 1239, 1241, 1242, 1244"/>
			</rt_info>
			<input>
				<port id="0" precision="FP32">
					<dim>1</dim>
					<dim>384</dim>
					<dim>512</dim>
				</port>
			</input>
			<output>
				<port id="1" precision="FP32" names="1244">
					<dim>1</dim>
					<dim>384</dim>
					<dim>512</dim>
				</port>
			</output>
		</layer>
		<layer id="202" name="Constant_19395_compressed" type="Const" version="opset1">
			<data element_type="f16" shape="1, 1, 1" offset="17473756" size="2"/>
			<output>
				<port id="0" precision="FP16">
					<dim>1</dim>
					<dim>1</dim>
					<dim>1</dim>
				</port>
			</output>
		</layer>
		<layer id="203" name="Constant_19395" type="Convert" version="opset1">
			<data destination_type="f32"/>
			<rt_info>
				<attribute name="decompression" version="0"/>
			</rt_info>
			<input>
				<port id="0" precision="FP16">
					<dim>1</dim>
					<dim>1</dim>
					<dim>1</dim>
				</port>
			</input>
			<output>
				<port id="1" precision="FP32">
					<dim>1</dim>
					<dim>1</dim>
					<dim>1</dim>
				</port>
			</output>
		</layer>
		<layer id="204" name="Constant_19396_compressed" type="Const" version="opset1">
			<data element_type="f16" shape="1, 1, 1" offset="17473758" size="2"/>
			<output>
				<port id="0" precision="FP16">
					<dim>1</dim>
					<dim>1</dim>
					<dim>1</dim>
				</port>
			</output>
		</layer>
		<layer id="205" name="Constant_19396" type="Convert" version="opset1">
			<data destination_type="f32"/>
			<rt_info>
				<attribute name="decompression" version="0"/>
			</rt_info>
			<input>
				<port id="0" precision="FP16">
					<dim>1</dim>
					<dim>1</dim>
					<dim>1</dim>
				</port>
			</input>
			<output>
				<port id="1" precision="FP32">
					<dim>1</dim>
					<dim>1</dim>
					<dim>1</dim>
				</port>
			</output>
		</layer>
		<layer id="206" name="Constant_19397_compressed" type="Const" version="opset1">
			<data element_type="f16" shape="1, 1, 1" offset="17473756" size="2"/>
			<output>
				<port id="0" precision="FP16">
					<dim>1</dim>
					<dim>1</dim>
					<dim>1</dim>
				</port>
			</output>
		</layer>
		<layer id="207" name="Constant_19397" type="Convert" version="opset1">
			<data destination_type="f32"/>
			<rt_info>
				<attribute name="decompression" version="0"/>
			</rt_info>
			<input>
				<port id="0" precision="FP16">
					<dim>1</dim>
					<dim>1</dim>
					<dim>1</dim>
				</port>
			</input>
			<output>
				<port id="1" precision="FP32">
					<dim>1</dim>
					<dim>1</dim>
					<dim>1</dim>
				</port>
			</output>
		</layer>
		<layer id="208" name="Constant_19398_compressed" type="Const" version="opset1">
			<data element_type="f16" shape="1, 1, 1" offset="17473758" size="2"/>
			<output>
				<port id="0" precision="FP16">
					<dim>1</dim>
					<dim>1</dim>
					<dim>1</dim>
				</port>
			</output>
		</layer>
		<layer id="209" name="Constant_19398" type="Convert" version="opset1">
			<data destination_type="f32"/>
			<rt_info>
				<attribute name="decompression" version="0"/>
			</rt_info>
			<input>
				<port id="0" precision="FP16">
					<dim>1</dim>
					<dim>1</dim>
					<dim>1</dim>
				</port>
			</input>
			<output>
				<port id="1" precision="FP32">
					<dim>1</dim>
					<dim>1</dim>
					<dim>1</dim>
				</port>
			</output>
		</layer>
		<layer id="210" name="1247" type="FakeQuantize" version="opset1">
			<data levels="256" auto_broadcast="numpy"/>
			<rt_info>
				<attribute name="fused_names" version="0" value="1247"/>
			</rt_info>
			<input>
				<port id="0" precision="FP32">
					<dim>1</dim>
					<dim>384</dim>
					<dim>512</dim>
				</port>
				<port id="1" precision="FP32">
					<dim>1</dim>
					<dim>1</dim>
					<dim>1</dim>
				</port>
				<port id="2" precision="FP32">
					<dim>1</dim>
					<dim>1</dim>
					<dim>1</dim>
				</port>
				<port id="3" precision="FP32">
					<dim>1</dim>
					<dim>1</dim>
					<dim>1</dim>
				</port>
				<port id="4" precision="FP32">
					<dim>1</dim>
					<dim>1</dim>
					<dim>1</dim>
				</port>
			</input>
			<output>
				<port id="5" precision="FP32" names="1247">
					<dim>1</dim>
					<dim>384</dim>
					<dim>512</dim>
				</port>
			</output>
		</layer>
		<layer id="211" name="nncf_module.bert.encoder.layer.0.intermediate.denses.2.weight" type="Const" version="opset1">
			<data element_type="i8" shape="512, 512" offset="17473760" size="262144"/>
			<output>
				<port id="0" precision="I8">
					<dim>512</dim>
					<dim>512</dim>
				</port>
			</output>
		</layer>
		<layer id="212" name="Convert_22824" type="Convert" version="opset1">
			<data destination_type="f32"/>
			<rt_info>
				<attribute name="fused_names" version="0" value="1250, nncf_module.bert.encoder.layer.0.intermediate.denses.2.weight"/>
			</rt_info>
			<input>
				<port id="0" precision="I8">
					<dim>512</dim>
					<dim>512</dim>
				</port>
			</input>
			<output>
				<port id="1" precision="FP32">
					<dim>512</dim>
					<dim>512</dim>
				</port>
			</output>
		</layer>
		<layer id="213" name="Constant_22731_compressed" type="Const" version="opset1">
			<data element_type="f16" shape="1, 1" offset="17735904" size="2"/>
			<output>
				<port id="0" precision="FP16">
					<dim>1</dim>
					<dim>1</dim>
				</port>
			</output>
		</layer>
		<layer id="214" name="Constant_22731" type="Convert" version="opset1">
			<data destination_type="f32"/>
			<rt_info>
				<attribute name="decompression" version="0"/>
			</rt_info>
			<input>
				<port id="0" precision="FP16">
					<dim>1</dim>
					<dim>1</dim>
				</port>
			</input>
			<output>
				<port id="1" precision="FP32">
					<dim>1</dim>
					<dim>1</dim>
				</port>
			</output>
		</layer>
		<layer id="215" name="1250" type="Multiply" version="opset1">
			<data auto_broadcast="numpy"/>
			<rt_info>
				<attribute name="fused_names" version="0" value="1250, nncf_module.bert.encoder.layer.0.intermediate.denses.2.weight"/>
			</rt_info>
			<input>
				<port id="0" precision="FP32">
					<dim>512</dim>
					<dim>512</dim>
				</port>
				<port id="1" precision="FP32">
					<dim>1</dim>
					<dim>1</dim>
				</port>
			</input>
			<output>
				<port id="2" precision="FP32" names="1250">
					<dim>512</dim>
					<dim>512</dim>
				</port>
			</output>
		</layer>
		<layer id="216" name="Constant_808" type="Const" version="opset1">
			<data element_type="i64" shape="2" offset="16154652" size="16"/>
			<rt_info>
				<attribute name="fused_names" version="0" value="Constant_808"/>
			</rt_info>
			<output>
				<port id="0" precision="I64">
					<dim>2</dim>
				</port>
			</output>
		</layer>
		<layer id="217" name="1251" type="Transpose" version="opset1">
			<rt_info>
				<attribute name="fused_names" version="0" value="1251"/>
			</rt_info>
			<input>
				<port id="0" precision="FP32">
					<dim>512</dim>
					<dim>512</dim>
				</port>
				<port id="1" precision="I64">
					<dim>2</dim>
				</port>
			</input>
			<output>
				<port id="2" precision="FP32" names="1251">
					<dim>512</dim>
					<dim>512</dim>
				</port>
			</output>
		</layer>
		<layer id="218" name="1252" type="MatMul" version="opset1">
			<data transpose_a="false" transpose_b="false"/>
			<rt_info>
				<attribute name="fused_names" version="0" value="1252"/>
			</rt_info>
			<input>
				<port id="0" precision="FP32">
					<dim>1</dim>
					<dim>384</dim>
					<dim>512</dim>
				</port>
				<port id="1" precision="FP32">
					<dim>512</dim>
					<dim>512</dim>
				</port>
			</input>
			<output>
				<port id="2" precision="FP32" names="1252">
					<dim>1</dim>
					<dim>384</dim>
					<dim>512</dim>
				</port>
			</output>
		</layer>
		<layer id="219" name="Constant_19403_compressed" type="Const" version="opset1">
			<data element_type="f16" shape="1, 1, 512" offset="17735906" size="1024"/>
			<output>
				<port id="0" precision="FP16">
					<dim>1</dim>
					<dim>1</dim>
					<dim>512</dim>
				</port>
			</output>
		</layer>
		<layer id="220" name="Constant_19403" type="Convert" version="opset1">
			<data destination_type="f32"/>
			<rt_info>
				<attribute name="decompression" version="0"/>
			</rt_info>
			<input>
				<port id="0" precision="FP16">
					<dim>1</dim>
					<dim>1</dim>
					<dim>512</dim>
				</port>
			</input>
			<output>
				<port id="1" precision="FP32">
					<dim>1</dim>
					<dim>1</dim>
					<dim>512</dim>
				</port>
			</output>
		</layer>
		<layer id="221" name="1253" type="Add" version="opset1">
			<data auto_broadcast="numpy"/>
			<rt_info>
				<attribute name="fused_names" version="0" value="1253"/>
			</rt_info>
			<input>
				<port id="0" precision="FP32">
					<dim>1</dim>
					<dim>384</dim>
					<dim>512</dim>
				</port>
				<port id="1" precision="FP32">
					<dim>1</dim>
					<dim>1</dim>
					<dim>512</dim>
				</port>
			</input>
			<output>
				<port id="2" precision="FP32" names="1253">
					<dim>1</dim>
					<dim>384</dim>
					<dim>512</dim>
				</port>
			</output>
		</layer>
		<layer id="222" name="1261" type="Gelu" version="opset7">
			<data approximation_mode="ERF"/>
			<rt_info>
				<attribute name="fused_names" version="0" value="1255, 1256, 1258, 1259, 1261"/>
			</rt_info>
			<input>
				<port id="0" precision="FP32">
					<dim>1</dim>
					<dim>384</dim>
					<dim>512</dim>
				</port>
			</input>
			<output>
				<port id="1" precision="FP32" names="1261">
					<dim>1</dim>
					<dim>384</dim>
					<dim>512</dim>
				</port>
			</output>
		</layer>
		<layer id="223" name="Constant_19404_compressed" type="Const" version="opset1">
			<data element_type="f16" shape="1, 1, 1" offset="17736930" size="2"/>
			<output>
				<port id="0" precision="FP16">
					<dim>1</dim>
					<dim>1</dim>
					<dim>1</dim>
				</port>
			</output>
		</layer>
		<layer id="224" name="Constant_19404" type="Convert" version="opset1">
			<data destination_type="f32"/>
			<rt_info>
				<attribute name="decompression" version="0"/>
			</rt_info>
			<input>
				<port id="0" precision="FP16">
					<dim>1</dim>
					<dim>1</dim>
					<dim>1</dim>
				</port>
			</input>
			<output>
				<port id="1" precision="FP32">
					<dim>1</dim>
					<dim>1</dim>
					<dim>1</dim>
				</port>
			</output>
		</layer>
		<layer id="225" name="Constant_19405_compressed" type="Const" version="opset1">
			<data element_type="f16" shape="1, 1, 1" offset="17736932" size="2"/>
			<output>
				<port id="0" precision="FP16">
					<dim>1</dim>
					<dim>1</dim>
					<dim>1</dim>
				</port>
			</output>
		</layer>
		<layer id="226" name="Constant_19405" type="Convert" version="opset1">
			<data destination_type="f32"/>
			<rt_info>
				<attribute name="decompression" version="0"/>
			</rt_info>
			<input>
				<port id="0" precision="FP16">
					<dim>1</dim>
					<dim>1</dim>
					<dim>1</dim>
				</port>
			</input>
			<output>
				<port id="1" precision="FP32">
					<dim>1</dim>
					<dim>1</dim>
					<dim>1</dim>
				</port>
			</output>
		</layer>
		<layer id="227" name="Constant_19406_compressed" type="Const" version="opset1">
			<data element_type="f16" shape="1, 1, 1" offset="17736930" size="2"/>
			<output>
				<port id="0" precision="FP16">
					<dim>1</dim>
					<dim>1</dim>
					<dim>1</dim>
				</port>
			</output>
		</layer>
		<layer id="228" name="Constant_19406" type="Convert" version="opset1">
			<data destination_type="f32"/>
			<rt_info>
				<attribute name="decompression" version="0"/>
			</rt_info>
			<input>
				<port id="0" precision="FP16">
					<dim>1</dim>
					<dim>1</dim>
					<dim>1</dim>
				</port>
			</input>
			<output>
				<port id="1" precision="FP32">
					<dim>1</dim>
					<dim>1</dim>
					<dim>1</dim>
				</port>
			</output>
		</layer>
		<layer id="229" name="Constant_19407_compressed" type="Const" version="opset1">
			<data element_type="f16" shape="1, 1, 1" offset="17736932" size="2"/>
			<output>
				<port id="0" precision="FP16">
					<dim>1</dim>
					<dim>1</dim>
					<dim>1</dim>
				</port>
			</output>
		</layer>
		<layer id="230" name="Constant_19407" type="Convert" version="opset1">
			<data destination_type="f32"/>
			<rt_info>
				<attribute name="decompression" version="0"/>
			</rt_info>
			<input>
				<port id="0" precision="FP16">
					<dim>1</dim>
					<dim>1</dim>
					<dim>1</dim>
				</port>
			</input>
			<output>
				<port id="1" precision="FP32">
					<dim>1</dim>
					<dim>1</dim>
					<dim>1</dim>
				</port>
			</output>
		</layer>
		<layer id="231" name="1264" type="FakeQuantize" version="opset1">
			<data levels="256" auto_broadcast="numpy"/>
			<rt_info>
				<attribute name="fused_names" version="0" value="1264"/>
			</rt_info>
			<input>
				<port id="0" precision="FP32">
					<dim>1</dim>
					<dim>384</dim>
					<dim>512</dim>
				</port>
				<port id="1" precision="FP32">
					<dim>1</dim>
					<dim>1</dim>
					<dim>1</dim>
				</port>
				<port id="2" precision="FP32">
					<dim>1</dim>
					<dim>1</dim>
					<dim>1</dim>
				</port>
				<port id="3" precision="FP32">
					<dim>1</dim>
					<dim>1</dim>
					<dim>1</dim>
				</port>
				<port id="4" precision="FP32">
					<dim>1</dim>
					<dim>1</dim>
					<dim>1</dim>
				</port>
			</input>
			<output>
				<port id="5" precision="FP32" names="1264">
					<dim>1</dim>
					<dim>384</dim>
					<dim>512</dim>
				</port>
			</output>
		</layer>
		<layer id="232" name="nncf_module.bert.encoder.layer.0.output.dense.weight" type="Const" version="opset1">
			<data element_type="i8" shape="512, 512" offset="17736934" size="262144"/>
			<output>
				<port id="0" precision="I8">
					<dim>512</dim>
					<dim>512</dim>
				</port>
			</output>
		</layer>
		<layer id="233" name="Convert_22993" type="Convert" version="opset1">
			<data destination_type="f32"/>
			<rt_info>
				<attribute name="fused_names" version="0" value="1267, nncf_module.bert.encoder.layer.0.output.dense.weight"/>
			</rt_info>
			<input>
				<port id="0" precision="I8">
					<dim>512</dim>
					<dim>512</dim>
				</port>
			</input>
			<output>
				<port id="1" precision="FP32">
					<dim>512</dim>
					<dim>512</dim>
				</port>
			</output>
		</layer>
		<layer id="234" name="Constant_22900_compressed" type="Const" version="opset1">
			<data element_type="f16" shape="1, 1" offset="17999078" size="2"/>
			<output>
				<port id="0" precision="FP16">
					<dim>1</dim>
					<dim>1</dim>
				</port>
			</output>
		</layer>
		<layer id="235" name="Constant_22900" type="Convert" version="opset1">
			<data destination_type="f32"/>
			<rt_info>
				<attribute name="decompression" version="0"/>
			</rt_info>
			<input>
				<port id="0" precision="FP16">
					<dim>1</dim>
					<dim>1</dim>
				</port>
			</input>
			<output>
				<port id="1" precision="FP32">
					<dim>1</dim>
					<dim>1</dim>
				</port>
			</output>
		</layer>
		<layer id="236" name="1267" type="Multiply" version="opset1">
			<data auto_broadcast="numpy"/>
			<rt_info>
				<attribute name="fused_names" version="0" value="1267, nncf_module.bert.encoder.layer.0.output.dense.weight"/>
			</rt_info>
			<input>
				<port id="0" precision="FP32">
					<dim>512</dim>
					<dim>512</dim>
				</port>
				<port id="1" precision="FP32">
					<dim>1</dim>
					<dim>1</dim>
				</port>
			</input>
			<output>
				<port id="2" precision="FP32" names="1267">
					<dim>512</dim>
					<dim>512</dim>
				</port>
			</output>
		</layer>
		<layer id="237" name="Constant_826" type="Const" version="opset1">
			<data element_type="i64" shape="2" offset="16154652" size="16"/>
			<rt_info>
				<attribute name="fused_names" version="0" value="Constant_826"/>
			</rt_info>
			<output>
				<port id="0" precision="I64">
					<dim>2</dim>
				</port>
			</output>
		</layer>
		<layer id="238" name="1268" type="Transpose" version="opset1">
			<rt_info>
				<attribute name="fused_names" version="0" value="1268"/>
			</rt_info>
			<input>
				<port id="0" precision="FP32">
					<dim>512</dim>
					<dim>512</dim>
				</port>
				<port id="1" precision="I64">
					<dim>2</dim>
				</port>
			</input>
			<output>
				<port id="2" precision="FP32" names="1268">
					<dim>512</dim>
					<dim>512</dim>
				</port>
			</output>
		</layer>
		<layer id="239" name="1269" type="MatMul" version="opset1">
			<data transpose_a="false" transpose_b="false"/>
			<rt_info>
				<attribute name="fused_names" version="0" value="1269"/>
			</rt_info>
			<input>
				<port id="0" precision="FP32">
					<dim>1</dim>
					<dim>384</dim>
					<dim>512</dim>
				</port>
				<port id="1" precision="FP32">
					<dim>512</dim>
					<dim>512</dim>
				</port>
			</input>
			<output>
				<port id="2" precision="FP32" names="1269">
					<dim>1</dim>
					<dim>384</dim>
					<dim>512</dim>
				</port>
			</output>
		</layer>
		<layer id="240" name="Constant_19412_compressed" type="Const" version="opset1">
			<data element_type="f16" shape="1, 1, 512" offset="17999080" size="1024"/>
			<output>
				<port id="0" precision="FP16">
					<dim>1</dim>
					<dim>1</dim>
					<dim>512</dim>
				</port>
			</output>
		</layer>
		<layer id="241" name="Constant_19412" type="Convert" version="opset1">
			<data destination_type="f32"/>
			<rt_info>
				<attribute name="decompression" version="0"/>
			</rt_info>
			<input>
				<port id="0" precision="FP16">
					<dim>1</dim>
					<dim>1</dim>
					<dim>512</dim>
				</port>
			</input>
			<output>
				<port id="1" precision="FP32">
					<dim>1</dim>
					<dim>1</dim>
					<dim>512</dim>
				</port>
			</output>
		</layer>
		<layer id="242" name="1270" type="Add" version="opset1">
			<data auto_broadcast="numpy"/>
			<rt_info>
				<attribute name="fused_names" version="0" value="1270"/>
			</rt_info>
			<input>
				<port id="0" precision="FP32">
					<dim>1</dim>
					<dim>384</dim>
					<dim>512</dim>
				</port>
				<port id="1" precision="FP32">
					<dim>1</dim>
					<dim>1</dim>
					<dim>512</dim>
				</port>
			</input>
			<output>
				<port id="2" precision="FP32" names="1270">
					<dim>1</dim>
					<dim>384</dim>
					<dim>512</dim>
				</port>
			</output>
		</layer>
		<layer id="243" name="Constant_19413_compressed" type="Const" version="opset1">
			<data element_type="f16" shape="1, 1, 1" offset="18000104" size="2"/>
			<output>
				<port id="0" precision="FP16">
					<dim>1</dim>
					<dim>1</dim>
					<dim>1</dim>
				</port>
			</output>
		</layer>
		<layer id="244" name="Constant_19413" type="Convert" version="opset1">
			<data destination_type="f32"/>
			<rt_info>
				<attribute name="decompression" version="0"/>
			</rt_info>
			<input>
				<port id="0" precision="FP16">
					<dim>1</dim>
					<dim>1</dim>
					<dim>1</dim>
				</port>
			</input>
			<output>
				<port id="1" precision="FP32">
					<dim>1</dim>
					<dim>1</dim>
					<dim>1</dim>
				</port>
			</output>
		</layer>
		<layer id="245" name="Constant_19414_compressed" type="Const" version="opset1">
			<data element_type="f16" shape="1, 1, 1" offset="18000106" size="2"/>
			<output>
				<port id="0" precision="FP16">
					<dim>1</dim>
					<dim>1</dim>
					<dim>1</dim>
				</port>
			</output>
		</layer>
		<layer id="246" name="Constant_19414" type="Convert" version="opset1">
			<data destination_type="f32"/>
			<rt_info>
				<attribute name="decompression" version="0"/>
			</rt_info>
			<input>
				<port id="0" precision="FP16">
					<dim>1</dim>
					<dim>1</dim>
					<dim>1</dim>
				</port>
			</input>
			<output>
				<port id="1" precision="FP32">
					<dim>1</dim>
					<dim>1</dim>
					<dim>1</dim>
				</port>
			</output>
		</layer>
		<layer id="247" name="Constant_19415_compressed" type="Const" version="opset1">
			<data element_type="f16" shape="1, 1, 1" offset="18000104" size="2"/>
			<output>
				<port id="0" precision="FP16">
					<dim>1</dim>
					<dim>1</dim>
					<dim>1</dim>
				</port>
			</output>
		</layer>
		<layer id="248" name="Constant_19415" type="Convert" version="opset1">
			<data destination_type="f32"/>
			<rt_info>
				<attribute name="decompression" version="0"/>
			</rt_info>
			<input>
				<port id="0" precision="FP16">
					<dim>1</dim>
					<dim>1</dim>
					<dim>1</dim>
				</port>
			</input>
			<output>
				<port id="1" precision="FP32">
					<dim>1</dim>
					<dim>1</dim>
					<dim>1</dim>
				</port>
			</output>
		</layer>
		<layer id="249" name="Constant_19416_compressed" type="Const" version="opset1">
			<data element_type="f16" shape="1, 1, 1" offset="18000106" size="2"/>
			<output>
				<port id="0" precision="FP16">
					<dim>1</dim>
					<dim>1</dim>
					<dim>1</dim>
				</port>
			</output>
		</layer>
		<layer id="250" name="Constant_19416" type="Convert" version="opset1">
			<data destination_type="f32"/>
			<rt_info>
				<attribute name="decompression" version="0"/>
			</rt_info>
			<input>
				<port id="0" precision="FP16">
					<dim>1</dim>
					<dim>1</dim>
					<dim>1</dim>
				</port>
			</input>
			<output>
				<port id="1" precision="FP32">
					<dim>1</dim>
					<dim>1</dim>
					<dim>1</dim>
				</port>
			</output>
		</layer>
		<layer id="251" name="1273" type="FakeQuantize" version="opset1">
			<data levels="256" auto_broadcast="numpy"/>
			<rt_info>
				<attribute name="fused_names" version="0" value="1273"/>
			</rt_info>
			<input>
				<port id="0" precision="FP32">
					<dim>1</dim>
					<dim>384</dim>
					<dim>512</dim>
				</port>
				<port id="1" precision="FP32">
					<dim>1</dim>
					<dim>1</dim>
					<dim>1</dim>
				</port>
				<port id="2" precision="FP32">
					<dim>1</dim>
					<dim>1</dim>
					<dim>1</dim>
				</port>
				<port id="3" precision="FP32">
					<dim>1</dim>
					<dim>1</dim>
					<dim>1</dim>
				</port>
				<port id="4" precision="FP32">
					<dim>1</dim>
					<dim>1</dim>
					<dim>1</dim>
				</port>
			</input>
			<output>
				<port id="5" precision="FP32" names="1273">
					<dim>1</dim>
					<dim>384</dim>
					<dim>512</dim>
				</port>
			</output>
		</layer>
		<layer id="252" name="1274" type="Add" version="opset1">
			<data auto_broadcast="numpy"/>
			<rt_info>
				<attribute name="fused_names" version="0" value="1274"/>
			</rt_info>
			<input>
				<port id="0" precision="FP32">
					<dim>1</dim>
					<dim>384</dim>
					<dim>512</dim>
				</port>
				<port id="1" precision="FP32">
					<dim>1</dim>
					<dim>384</dim>
					<dim>512</dim>
				</port>
			</input>
			<output>
				<port id="2" precision="FP32" names="1274">
					<dim>1</dim>
					<dim>384</dim>
					<dim>512</dim>
				</port>
			</output>
		</layer>
		<layer id="253" name="Constant_834" type="Const" version="opset1">
			<data element_type="i64" shape="1" offset="15890446" size="8"/>
			<rt_info>
				<attribute name="fused_names" version="0" value="Constant_834"/>
			</rt_info>
			<output>
				<port id="0" precision="I64">
					<dim>1</dim>
				</port>
			</output>
		</layer>
		<layer id="254" name="1285" type="MVN" version="opset6">
			<data eps="9.999999960041972e-13" normalize_variance="true" eps_mode="INSIDE_SQRT"/>
			<rt_info>
				<attribute name="fused_names" version="0" value="1276, 1277, 1278, 1280, 1281, 1283, 1284, 1285"/>
			</rt_info>
			<input>
				<port id="0" precision="FP32">
					<dim>1</dim>
					<dim>384</dim>
					<dim>512</dim>
				</port>
				<port id="1" precision="I64">
					<dim>1</dim>
				</port>
			</input>
			<output>
				<port id="2" precision="FP32" names="1285">
					<dim>1</dim>
					<dim>384</dim>
					<dim>512</dim>
				</port>
			</output>
		</layer>
		<layer id="255" name="Constant_19417_compressed" type="Const" version="opset1">
			<data element_type="f16" shape="1, 1, 512" offset="18000108" size="1024"/>
			<output>
				<port id="0" precision="FP16">
					<dim>1</dim>
					<dim>1</dim>
					<dim>512</dim>
				</port>
			</output>
		</layer>
		<layer id="256" name="Constant_19417" type="Convert" version="opset1">
			<data destination_type="f32"/>
			<rt_info>
				<attribute name="decompression" version="0"/>
			</rt_info>
			<input>
				<port id="0" precision="FP16">
					<dim>1</dim>
					<dim>1</dim>
					<dim>512</dim>
				</port>
			</input>
			<output>
				<port id="1" precision="FP32">
					<dim>1</dim>
					<dim>1</dim>
					<dim>512</dim>
				</port>
			</output>
		</layer>
		<layer id="257" name="1286" type="Multiply" version="opset1">
			<data auto_broadcast="numpy"/>
			<rt_info>
				<attribute name="fused_names" version="0" value="1286"/>
			</rt_info>
			<input>
				<port id="0" precision="FP32">
					<dim>1</dim>
					<dim>384</dim>
					<dim>512</dim>
				</port>
				<port id="1" precision="FP32">
					<dim>1</dim>
					<dim>1</dim>
					<dim>512</dim>
				</port>
			</input>
			<output>
				<port id="2" precision="FP32" names="1286">
					<dim>1</dim>
					<dim>384</dim>
					<dim>512</dim>
				</port>
			</output>
		</layer>
		<layer id="258" name="Constant_19418_compressed" type="Const" version="opset1">
			<data element_type="f16" shape="1, 1, 512" offset="18001132" size="1024"/>
			<output>
				<port id="0" precision="FP16">
					<dim>1</dim>
					<dim>1</dim>
					<dim>512</dim>
				</port>
			</output>
		</layer>
		<layer id="259" name="Constant_19418" type="Convert" version="opset1">
			<data destination_type="f32"/>
			<rt_info>
				<attribute name="decompression" version="0"/>
			</rt_info>
			<input>
				<port id="0" precision="FP16">
					<dim>1</dim>
					<dim>1</dim>
					<dim>512</dim>
				</port>
			</input>
			<output>
				<port id="1" precision="FP32">
					<dim>1</dim>
					<dim>1</dim>
					<dim>512</dim>
				</port>
			</output>
		</layer>
		<layer id="260" name="1287" type="Add" version="opset1">
			<data auto_broadcast="numpy"/>
			<rt_info>
				<attribute name="fused_names" version="0" value="1287"/>
			</rt_info>
			<input>
				<port id="0" precision="FP32">
					<dim>1</dim>
					<dim>384</dim>
					<dim>512</dim>
				</port>
				<port id="1" precision="FP32">
					<dim>1</dim>
					<dim>1</dim>
					<dim>512</dim>
				</port>
			</input>
			<output>
				<port id="2" precision="FP32" names="1287">
					<dim>1</dim>
					<dim>384</dim>
					<dim>512</dim>
				</port>
			</output>
		</layer>
		<layer id="261" name="Constant_19419_compressed" type="Const" version="opset1">
			<data element_type="f16" shape="1, 1, 1" offset="18002156" size="2"/>
			<output>
				<port id="0" precision="FP16">
					<dim>1</dim>
					<dim>1</dim>
					<dim>1</dim>
				</port>
			</output>
		</layer>
		<layer id="262" name="Constant_19419" type="Convert" version="opset1">
			<data destination_type="f32"/>
			<rt_info>
				<attribute name="decompression" version="0"/>
			</rt_info>
			<input>
				<port id="0" precision="FP16">
					<dim>1</dim>
					<dim>1</dim>
					<dim>1</dim>
				</port>
			</input>
			<output>
				<port id="1" precision="FP32">
					<dim>1</dim>
					<dim>1</dim>
					<dim>1</dim>
				</port>
			</output>
		</layer>
		<layer id="263" name="Constant_19420_compressed" type="Const" version="opset1">
			<data element_type="f16" shape="1, 1, 1" offset="18002158" size="2"/>
			<output>
				<port id="0" precision="FP16">
					<dim>1</dim>
					<dim>1</dim>
					<dim>1</dim>
				</port>
			</output>
		</layer>
		<layer id="264" name="Constant_19420" type="Convert" version="opset1">
			<data destination_type="f32"/>
			<rt_info>
				<attribute name="decompression" version="0"/>
			</rt_info>
			<input>
				<port id="0" precision="FP16">
					<dim>1</dim>
					<dim>1</dim>
					<dim>1</dim>
				</port>
			</input>
			<output>
				<port id="1" precision="FP32">
					<dim>1</dim>
					<dim>1</dim>
					<dim>1</dim>
				</port>
			</output>
		</layer>
		<layer id="265" name="Constant_19421_compressed" type="Const" version="opset1">
			<data element_type="f16" shape="1, 1, 1" offset="18002156" size="2"/>
			<output>
				<port id="0" precision="FP16">
					<dim>1</dim>
					<dim>1</dim>
					<dim>1</dim>
				</port>
			</output>
		</layer>
		<layer id="266" name="Constant_19421" type="Convert" version="opset1">
			<data destination_type="f32"/>
			<rt_info>
				<attribute name="decompression" version="0"/>
			</rt_info>
			<input>
				<port id="0" precision="FP16">
					<dim>1</dim>
					<dim>1</dim>
					<dim>1</dim>
				</port>
			</input>
			<output>
				<port id="1" precision="FP32">
					<dim>1</dim>
					<dim>1</dim>
					<dim>1</dim>
				</port>
			</output>
		</layer>
		<layer id="267" name="Constant_19422_compressed" type="Const" version="opset1">
			<data element_type="f16" shape="1, 1, 1" offset="18002158" size="2"/>
			<output>
				<port id="0" precision="FP16">
					<dim>1</dim>
					<dim>1</dim>
					<dim>1</dim>
				</port>
			</output>
		</layer>
		<layer id="268" name="Constant_19422" type="Convert" version="opset1">
			<data destination_type="f32"/>
			<rt_info>
				<attribute name="decompression" version="0"/>
			</rt_info>
			<input>
				<port id="0" precision="FP16">
					<dim>1</dim>
					<dim>1</dim>
					<dim>1</dim>
				</port>
			</input>
			<output>
				<port id="1" precision="FP32">
					<dim>1</dim>
					<dim>1</dim>
					<dim>1</dim>
				</port>
			</output>
		</layer>
		<layer id="269" name="1290" type="FakeQuantize" version="opset1">
			<data levels="256" auto_broadcast="numpy"/>
			<rt_info>
				<attribute name="fused_names" version="0" value="1290"/>
			</rt_info>
			<input>
				<port id="0" precision="FP32">
					<dim>1</dim>
					<dim>384</dim>
					<dim>512</dim>
				</port>
				<port id="1" precision="FP32">
					<dim>1</dim>
					<dim>1</dim>
					<dim>1</dim>
				</port>
				<port id="2" precision="FP32">
					<dim>1</dim>
					<dim>1</dim>
					<dim>1</dim>
				</port>
				<port id="3" precision="FP32">
					<dim>1</dim>
					<dim>1</dim>
					<dim>1</dim>
				</port>
				<port id="4" precision="FP32">
					<dim>1</dim>
					<dim>1</dim>
					<dim>1</dim>
				</port>
			</input>
			<output>
				<port id="5" precision="FP32" names="1290">
					<dim>1</dim>
					<dim>384</dim>
					<dim>512</dim>
				</port>
			</output>
		</layer>
		<layer id="270" name="nncf_module.bert.encoder.layer.1.attention.self.query.weight" type="Const" version="opset1">
			<data element_type="i8" shape="512, 512" offset="18002160" size="262144"/>
			<output>
				<port id="0" precision="I8">
					<dim>512</dim>
					<dim>512</dim>
				</port>
			</output>
		</layer>
		<layer id="271" name="Convert_23162" type="Convert" version="opset1">
			<data destination_type="f32"/>
			<rt_info>
				<attribute name="fused_names" version="0" value="1293, nncf_module.bert.encoder.layer.1.attention.self.query.weight"/>
			</rt_info>
			<input>
				<port id="0" precision="I8">
					<dim>512</dim>
					<dim>512</dim>
				</port>
			</input>
			<output>
				<port id="1" precision="FP32">
					<dim>512</dim>
					<dim>512</dim>
				</port>
			</output>
		</layer>
		<layer id="272" name="Constant_23069_compressed" type="Const" version="opset1">
			<data element_type="f16" shape="1, 1" offset="18264304" size="2"/>
			<output>
				<port id="0" precision="FP16">
					<dim>1</dim>
					<dim>1</dim>
				</port>
			</output>
		</layer>
		<layer id="273" name="Constant_23069" type="Convert" version="opset1">
			<data destination_type="f32"/>
			<rt_info>
				<attribute name="decompression" version="0"/>
			</rt_info>
			<input>
				<port id="0" precision="FP16">
					<dim>1</dim>
					<dim>1</dim>
				</port>
			</input>
			<output>
				<port id="1" precision="FP32">
					<dim>1</dim>
					<dim>1</dim>
				</port>
			</output>
		</layer>
		<layer id="274" name="1293" type="Multiply" version="opset1">
			<data auto_broadcast="numpy"/>
			<rt_info>
				<attribute name="fused_names" version="0" value="1293, nncf_module.bert.encoder.layer.1.attention.self.query.weight"/>
			</rt_info>
			<input>
				<port id="0" precision="FP32">
					<dim>512</dim>
					<dim>512</dim>
				</port>
				<port id="1" precision="FP32">
					<dim>1</dim>
					<dim>1</dim>
				</port>
			</input>
			<output>
				<port id="2" precision="FP32" names="1293">
					<dim>512</dim>
					<dim>512</dim>
				</port>
			</output>
		</layer>
		<layer id="275" name="Constant_853" type="Const" version="opset1">
			<data element_type="i64" shape="2" offset="16154652" size="16"/>
			<rt_info>
				<attribute name="fused_names" version="0" value="Constant_853"/>
			</rt_info>
			<output>
				<port id="0" precision="I64">
					<dim>2</dim>
				</port>
			</output>
		</layer>
		<layer id="276" name="1294" type="Transpose" version="opset1">
			<rt_info>
				<attribute name="fused_names" version="0" value="1294"/>
			</rt_info>
			<input>
				<port id="0" precision="FP32">
					<dim>512</dim>
					<dim>512</dim>
				</port>
				<port id="1" precision="I64">
					<dim>2</dim>
				</port>
			</input>
			<output>
				<port id="2" precision="FP32" names="1294">
					<dim>512</dim>
					<dim>512</dim>
				</port>
			</output>
		</layer>
		<layer id="277" name="1295" type="MatMul" version="opset1">
			<data transpose_a="false" transpose_b="false"/>
			<rt_info>
				<attribute name="fused_names" version="0" value="1295"/>
			</rt_info>
			<input>
				<port id="0" precision="FP32">
					<dim>1</dim>
					<dim>384</dim>
					<dim>512</dim>
				</port>
				<port id="1" precision="FP32">
					<dim>512</dim>
					<dim>512</dim>
				</port>
			</input>
			<output>
				<port id="2" precision="FP32" names="1295">
					<dim>1</dim>
					<dim>384</dim>
					<dim>512</dim>
				</port>
			</output>
		</layer>
		<layer id="278" name="Constant_19427_compressed" type="Const" version="opset1">
			<data element_type="f16" shape="1, 1, 512" offset="18264306" size="1024"/>
			<output>
				<port id="0" precision="FP16">
					<dim>1</dim>
					<dim>1</dim>
					<dim>512</dim>
				</port>
			</output>
		</layer>
		<layer id="279" name="Constant_19427" type="Convert" version="opset1">
			<data destination_type="f32"/>
			<rt_info>
				<attribute name="decompression" version="0"/>
			</rt_info>
			<input>
				<port id="0" precision="FP16">
					<dim>1</dim>
					<dim>1</dim>
					<dim>512</dim>
				</port>
			</input>
			<output>
				<port id="1" precision="FP32">
					<dim>1</dim>
					<dim>1</dim>
					<dim>512</dim>
				</port>
			</output>
		</layer>
		<layer id="280" name="1296" type="Add" version="opset1">
			<data auto_broadcast="numpy"/>
			<rt_info>
				<attribute name="fused_names" version="0" value="1296"/>
			</rt_info>
			<input>
				<port id="0" precision="FP32">
					<dim>1</dim>
					<dim>384</dim>
					<dim>512</dim>
				</port>
				<port id="1" precision="FP32">
					<dim>1</dim>
					<dim>1</dim>
					<dim>512</dim>
				</port>
			</input>
			<output>
				<port id="2" precision="FP32" names="1296">
					<dim>1</dim>
					<dim>384</dim>
					<dim>512</dim>
				</port>
			</output>
		</layer>
		<layer id="281" name="1321" type="Const" version="opset1">
			<data element_type="i64" shape="4" offset="16155692" size="32"/>
			<rt_info>
				<attribute name="fused_names" version="0" value="1321, 3379, 3380"/>
			</rt_info>
			<output>
				<port id="0" precision="I64">
					<dim>4</dim>
				</port>
			</output>
		</layer>
		<layer id="282" name="1322" type="Reshape" version="opset1">
			<data special_zero="true"/>
			<rt_info>
				<attribute name="fused_names" version="0" value="1322"/>
			</rt_info>
			<input>
				<port id="0" precision="FP32">
					<dim>1</dim>
					<dim>384</dim>
					<dim>512</dim>
				</port>
				<port id="1" precision="I64">
					<dim>4</dim>
				</port>
			</input>
			<output>
				<port id="2" precision="FP32" names="1322">
					<dim>1</dim>
					<dim>384</dim>
					<dim>8</dim>
					<dim>64</dim>
				</port>
			</output>
		</layer>
		<layer id="283" name="Constant_932" type="Const" version="opset1">
			<data element_type="i64" shape="4" offset="16155724" size="32"/>
			<rt_info>
				<attribute name="fused_names" version="0" value="Constant_932"/>
			</rt_info>
			<output>
				<port id="0" precision="I64">
					<dim>4</dim>
				</port>
			</output>
		</layer>
		<layer id="284" name="1323" type="Transpose" version="opset1">
			<rt_info>
				<attribute name="fused_names" version="0" value="1323"/>
			</rt_info>
			<input>
				<port id="0" precision="FP32">
					<dim>1</dim>
					<dim>384</dim>
					<dim>8</dim>
					<dim>64</dim>
				</port>
				<port id="1" precision="I64">
					<dim>4</dim>
				</port>
			</input>
			<output>
				<port id="2" precision="FP32" names="1323">
					<dim>1</dim>
					<dim>8</dim>
					<dim>384</dim>
					<dim>64</dim>
				</port>
			</output>
		</layer>
		<layer id="285" name="nncf_module.bert.encoder.layer.1.attention.self.key.weight" type="Const" version="opset1">
			<data element_type="i8" shape="512, 512" offset="18265330" size="262144"/>
			<output>
				<port id="0" precision="I8">
					<dim>512</dim>
					<dim>512</dim>
				</port>
			</output>
		</layer>
		<layer id="286" name="Convert_23331" type="Convert" version="opset1">
			<data destination_type="f32"/>
			<rt_info>
				<attribute name="fused_names" version="0" value="1299, nncf_module.bert.encoder.layer.1.attention.self.key.weight"/>
			</rt_info>
			<input>
				<port id="0" precision="I8">
					<dim>512</dim>
					<dim>512</dim>
				</port>
			</input>
			<output>
				<port id="1" precision="FP32">
					<dim>512</dim>
					<dim>512</dim>
				</port>
			</output>
		</layer>
		<layer id="287" name="Constant_23238_compressed" type="Const" version="opset1">
			<data element_type="f16" shape="1, 1" offset="18527474" size="2"/>
			<output>
				<port id="0" precision="FP16">
					<dim>1</dim>
					<dim>1</dim>
				</port>
			</output>
		</layer>
		<layer id="288" name="Constant_23238" type="Convert" version="opset1">
			<data destination_type="f32"/>
			<rt_info>
				<attribute name="decompression" version="0"/>
			</rt_info>
			<input>
				<port id="0" precision="FP16">
					<dim>1</dim>
					<dim>1</dim>
				</port>
			</input>
			<output>
				<port id="1" precision="FP32">
					<dim>1</dim>
					<dim>1</dim>
				</port>
			</output>
		</layer>
		<layer id="289" name="1299" type="Multiply" version="opset1">
			<data auto_broadcast="numpy"/>
			<rt_info>
				<attribute name="fused_names" version="0" value="1299, nncf_module.bert.encoder.layer.1.attention.self.key.weight"/>
			</rt_info>
			<input>
				<port id="0" precision="FP32">
					<dim>512</dim>
					<dim>512</dim>
				</port>
				<port id="1" precision="FP32">
					<dim>1</dim>
					<dim>1</dim>
				</port>
			</input>
			<output>
				<port id="2" precision="FP32" names="1299">
					<dim>512</dim>
					<dim>512</dim>
				</port>
			</output>
		</layer>
		<layer id="290" name="Constant_860" type="Const" version="opset1">
			<data element_type="i64" shape="2" offset="16154652" size="16"/>
			<rt_info>
				<attribute name="fused_names" version="0" value="Constant_860"/>
			</rt_info>
			<output>
				<port id="0" precision="I64">
					<dim>2</dim>
				</port>
			</output>
		</layer>
		<layer id="291" name="1300" type="Transpose" version="opset1">
			<rt_info>
				<attribute name="fused_names" version="0" value="1300"/>
			</rt_info>
			<input>
				<port id="0" precision="FP32">
					<dim>512</dim>
					<dim>512</dim>
				</port>
				<port id="1" precision="I64">
					<dim>2</dim>
				</port>
			</input>
			<output>
				<port id="2" precision="FP32" names="1300">
					<dim>512</dim>
					<dim>512</dim>
				</port>
			</output>
		</layer>
		<layer id="292" name="1301" type="MatMul" version="opset1">
			<data transpose_a="false" transpose_b="false"/>
			<rt_info>
				<attribute name="fused_names" version="0" value="1301"/>
			</rt_info>
			<input>
				<port id="0" precision="FP32">
					<dim>1</dim>
					<dim>384</dim>
					<dim>512</dim>
				</port>
				<port id="1" precision="FP32">
					<dim>512</dim>
					<dim>512</dim>
				</port>
			</input>
			<output>
				<port id="2" precision="FP32" names="1301">
					<dim>1</dim>
					<dim>384</dim>
					<dim>512</dim>
				</port>
			</output>
		</layer>
		<layer id="293" name="Constant_19432_compressed" type="Const" version="opset1">
			<data element_type="f16" shape="1, 1, 512" offset="18527476" size="1024"/>
			<output>
				<port id="0" precision="FP16">
					<dim>1</dim>
					<dim>1</dim>
					<dim>512</dim>
				</port>
			</output>
		</layer>
		<layer id="294" name="Constant_19432" type="Convert" version="opset1">
			<data destination_type="f32"/>
			<rt_info>
				<attribute name="decompression" version="0"/>
			</rt_info>
			<input>
				<port id="0" precision="FP16">
					<dim>1</dim>
					<dim>1</dim>
					<dim>512</dim>
				</port>
			</input>
			<output>
				<port id="1" precision="FP32">
					<dim>1</dim>
					<dim>1</dim>
					<dim>512</dim>
				</port>
			</output>
		</layer>
		<layer id="295" name="1302" type="Add" version="opset1">
			<data auto_broadcast="numpy"/>
			<rt_info>
				<attribute name="fused_names" version="0" value="1302"/>
			</rt_info>
			<input>
				<port id="0" precision="FP32">
					<dim>1</dim>
					<dim>384</dim>
					<dim>512</dim>
				</port>
				<port id="1" precision="FP32">
					<dim>1</dim>
					<dim>1</dim>
					<dim>512</dim>
				</port>
			</input>
			<output>
				<port id="2" precision="FP32" names="1302">
					<dim>1</dim>
					<dim>384</dim>
					<dim>512</dim>
				</port>
			</output>
		</layer>
		<layer id="296" name="1336" type="Const" version="opset1">
			<data element_type="i64" shape="4" offset="16155692" size="32"/>
			<rt_info>
				<attribute name="fused_names" version="0" value="1336, 3381, 3382"/>
			</rt_info>
			<output>
				<port id="0" precision="I64">
					<dim>4</dim>
				</port>
			</output>
		</layer>
		<layer id="297" name="1337" type="Reshape" version="opset1">
			<data special_zero="true"/>
			<rt_info>
				<attribute name="fused_names" version="0" value="1337"/>
			</rt_info>
			<input>
				<port id="0" precision="FP32">
					<dim>1</dim>
					<dim>384</dim>
					<dim>512</dim>
				</port>
				<port id="1" precision="I64">
					<dim>4</dim>
				</port>
			</input>
			<output>
				<port id="2" precision="FP32" names="1337">
					<dim>1</dim>
					<dim>384</dim>
					<dim>8</dim>
					<dim>64</dim>
				</port>
			</output>
		</layer>
		<layer id="298" name="Constant_1058" type="Const" version="opset1">
			<data element_type="i64" shape="4" offset="16418926" size="32"/>
			<rt_info>
				<attribute name="fused_names" version="0" value="Constant_1058"/>
			</rt_info>
			<output>
				<port id="0" precision="I64">
					<dim>4</dim>
				</port>
			</output>
		</layer>
		<layer id="299" name="1353" type="Transpose" version="opset1">
			<rt_info>
				<attribute name="fused_names" version="0" value="1353"/>
			</rt_info>
			<input>
				<port id="0" precision="FP32">
					<dim>1</dim>
					<dim>384</dim>
					<dim>8</dim>
					<dim>64</dim>
				</port>
				<port id="1" precision="I64">
					<dim>4</dim>
				</port>
			</input>
			<output>
				<port id="2" precision="FP32" names="1353">
					<dim>1</dim>
					<dim>8</dim>
					<dim>64</dim>
					<dim>384</dim>
				</port>
			</output>
		</layer>
		<layer id="300" name="Constant_19433_compressed" type="Const" version="opset1">
			<data element_type="f16" shape="1, 1, 1, 1" offset="16418958" size="2"/>
			<output>
				<port id="0" precision="FP16">
					<dim>1</dim>
					<dim>1</dim>
					<dim>1</dim>
					<dim>1</dim>
				</port>
			</output>
		</layer>
		<layer id="301" name="Constant_19433" type="Convert" version="opset1">
			<data destination_type="f32"/>
			<rt_info>
				<attribute name="decompression" version="0"/>
			</rt_info>
			<input>
				<port id="0" precision="FP16">
					<dim>1</dim>
					<dim>1</dim>
					<dim>1</dim>
					<dim>1</dim>
				</port>
			</input>
			<output>
				<port id="1" precision="FP32">
					<dim>1</dim>
					<dim>1</dim>
					<dim>1</dim>
					<dim>1</dim>
				</port>
			</output>
		</layer>
		<layer id="302" name="Multiply_19192" type="Multiply" version="opset1">
			<data auto_broadcast="numpy"/>
			<rt_info>
				<attribute name="fused_names" version="0" value="1353, 1354, 1355, 1356"/>
			</rt_info>
			<input>
				<port id="0" precision="FP32">
					<dim>1</dim>
					<dim>8</dim>
					<dim>64</dim>
					<dim>384</dim>
				</port>
				<port id="1" precision="FP32">
					<dim>1</dim>
					<dim>1</dim>
					<dim>1</dim>
					<dim>1</dim>
				</port>
			</input>
			<output>
				<port id="2" precision="FP32">
					<dim>1</dim>
					<dim>8</dim>
					<dim>64</dim>
					<dim>384</dim>
				</port>
			</output>
		</layer>
		<layer id="303" name="1356" type="MatMul" version="opset1">
			<data transpose_a="false" transpose_b="false"/>
			<rt_info>
				<attribute name="fused_names" version="0" value="1353, 1354, 1355, 1356"/>
			</rt_info>
			<input>
				<port id="0" precision="FP32">
					<dim>1</dim>
					<dim>8</dim>
					<dim>384</dim>
					<dim>64</dim>
				</port>
				<port id="1" precision="FP32">
					<dim>1</dim>
					<dim>8</dim>
					<dim>64</dim>
					<dim>384</dim>
				</port>
			</input>
			<output>
				<port id="2" precision="FP32" names="1356">
					<dim>1</dim>
					<dim>8</dim>
					<dim>384</dim>
					<dim>384</dim>
				</port>
			</output>
		</layer>
		<layer id="304" name="1357" type="Add" version="opset1">
			<data auto_broadcast="numpy"/>
			<rt_info>
				<attribute name="fused_names" version="0" value="1357"/>
			</rt_info>
			<input>
				<port id="0" precision="FP32">
					<dim>1</dim>
					<dim>8</dim>
					<dim>384</dim>
					<dim>384</dim>
				</port>
				<port id="1" precision="FP32">
					<dim>1</dim>
					<dim>1</dim>
					<dim>1</dim>
					<dim>384</dim>
				</port>
			</input>
			<output>
				<port id="2" precision="FP32" names="1357">
					<dim>1</dim>
					<dim>8</dim>
					<dim>384</dim>
					<dim>384</dim>
				</port>
			</output>
		</layer>
		<layer id="305" name="ShapeOf_1064" type="ShapeOf" version="opset1">
			<rt_info>
				<attribute name="fused_names" version="0" value="ShapeOf_1064, ShapeOf_1119"/>
			</rt_info>
			<input>
				<port id="0" precision="FP32">
					<dim>1</dim>
					<dim>8</dim>
					<dim>384</dim>
					<dim>384</dim>
				</port>
			</input>
			<output>
				<port id="1" precision="I64">
					<dim>4</dim>
				</port>
			</output>
		</layer>
		<layer id="306" name="Constant_1067" type="Const" version="opset1">
			<data element_type="i64" shape="1" offset="15627266" size="8"/>
			<rt_info>
				<attribute name="fused_names" version="0" value="Constant_1067"/>
			</rt_info>
			<output>
				<port id="0" precision="I64">
					<dim>1</dim>
				</port>
			</output>
		</layer>
		<layer id="307" name="Constant_1066" type="Const" version="opset1">
			<data element_type="i64" shape="1" offset="16418980" size="8"/>
			<rt_info>
				<attribute name="fused_names" version="0" value="Constant_1066"/>
			</rt_info>
			<output>
				<port id="0" precision="I64">
					<dim>1</dim>
				</port>
			</output>
		</layer>
		<layer id="308" name="Constant_1068" type="Const" version="opset1">
			<data element_type="i64" shape="1" offset="16418962" size="8"/>
			<rt_info>
				<attribute name="fused_names" version="0" value="Constant_1068"/>
			</rt_info>
			<output>
				<port id="0" precision="I64">
					<dim>1</dim>
				</port>
			</output>
		</layer>
		<layer id="309" name="StridedSlice_1069" type="StridedSlice" version="opset1">
			<data begin_mask="0" end_mask="0" new_axis_mask="" shrink_axis_mask="" ellipsis_mask=""/>
			<rt_info>
				<attribute name="fused_names" version="0" value="Constant_1066, Constant_1067, Constant_1068, StridedSlice_1069"/>
			</rt_info>
			<input>
				<port id="0" precision="I64">
					<dim>4</dim>
				</port>
				<port id="1" precision="I64">
					<dim>1</dim>
				</port>
				<port id="2" precision="I64">
					<dim>1</dim>
				</port>
				<port id="3" precision="I64">
					<dim>1</dim>
				</port>
			</input>
			<output>
				<port id="4" precision="I64">
					<dim>3</dim>
				</port>
			</output>
		</layer>
		<layer id="310" name="Constant_1070" type="Const" version="opset1">
			<data element_type="i64" shape="" offset="15627266" size="8"/>
			<rt_info>
				<attribute name="fused_names" version="0" value="Constant_1070"/>
			</rt_info>
			<output>
				<port id="0" precision="I64"/>
			</output>
		</layer>
		<layer id="311" name="ReduceProd_1071" type="ReduceProd" version="opset1">
			<data keep_dims="true"/>
			<rt_info>
				<attribute name="fused_names" version="0" value="Constant_1070, ReduceProd_1071"/>
			</rt_info>
			<input>
				<port id="0" precision="I64">
					<dim>3</dim>
				</port>
				<port id="1" precision="I64"/>
			</input>
			<output>
				<port id="2" precision="I64">
					<dim>1</dim>
				</port>
			</output>
		</layer>
		<layer id="312" name="Constant_1072" type="Const" version="opset1">
			<data element_type="i64" shape="1" offset="15890446" size="8"/>
			<rt_info>
				<attribute name="fused_names" version="0" value="Constant_1072"/>
			</rt_info>
			<output>
				<port id="0" precision="I64">
					<dim>1</dim>
				</port>
			</output>
		</layer>
		<layer id="313" name="Concat_1073" type="Concat" version="opset1">
			<data axis="0"/>
			<rt_info>
				<attribute name="fused_names" version="0" value="Concat_1073, Constant_1072"/>
			</rt_info>
			<input>
				<port id="0" precision="I64">
					<dim>1</dim>
				</port>
				<port id="1" precision="I64">
					<dim>1</dim>
				</port>
			</input>
			<output>
				<port id="2" precision="I64">
					<dim>2</dim>
				</port>
			</output>
		</layer>
		<layer id="314" name="Reshape_1074" type="Reshape" version="opset1">
			<data special_zero="true"/>
			<rt_info>
				<attribute name="fused_names" version="0" value="Reshape_1074"/>
			</rt_info>
			<input>
				<port id="0" precision="FP32">
					<dim>1</dim>
					<dim>8</dim>
					<dim>384</dim>
					<dim>384</dim>
				</port>
				<port id="1" precision="I64">
					<dim>2</dim>
				</port>
			</input>
			<output>
				<port id="2" precision="FP32">
					<dim>3072</dim>
					<dim>384</dim>
				</port>
			</output>
		</layer>
		<layer id="315" name="Softmax_1118" type="SoftMax" version="opset8">
			<data axis="1"/>
			<rt_info>
				<attribute name="fused_names" version="0" value="Softmax_1118"/>
			</rt_info>
			<input>
				<port id="0" precision="FP32">
					<dim>3072</dim>
					<dim>384</dim>
				</port>
			</input>
			<output>
				<port id="1" precision="FP32">
					<dim>3072</dim>
					<dim>384</dim>
				</port>
			</output>
		</layer>
		<layer id="316" name="1358" type="Reshape" version="opset1">
			<data special_zero="false"/>
			<rt_info>
				<attribute name="fused_names" version="0" value="1358"/>
			</rt_info>
			<input>
				<port id="0" precision="FP32">
					<dim>3072</dim>
					<dim>384</dim>
				</port>
				<port id="1" precision="I64">
					<dim>4</dim>
				</port>
			</input>
			<output>
				<port id="2" precision="FP32" names="1358">
					<dim>1</dim>
					<dim>8</dim>
					<dim>384</dim>
					<dim>384</dim>
				</port>
			</output>
		</layer>
		<layer id="317" name="nncf_module.bert.encoder.layer.1.attention.self.value.weight" type="Const" version="opset1">
			<data element_type="i8" shape="512, 512" offset="18528500" size="262144"/>
			<output>
				<port id="0" precision="I8">
					<dim>512</dim>
					<dim>512</dim>
				</port>
			</output>
		</layer>
		<layer id="318" name="Convert_23500" type="Convert" version="opset1">
			<data destination_type="f32"/>
			<rt_info>
				<attribute name="fused_names" version="0" value="1305, nncf_module.bert.encoder.layer.1.attention.self.value.weight"/>
			</rt_info>
			<input>
				<port id="0" precision="I8">
					<dim>512</dim>
					<dim>512</dim>
				</port>
			</input>
			<output>
				<port id="1" precision="FP32">
					<dim>512</dim>
					<dim>512</dim>
				</port>
			</output>
		</layer>
		<layer id="319" name="Constant_23407_compressed" type="Const" version="opset1">
			<data element_type="f16" shape="1, 1" offset="18790644" size="2"/>
			<output>
				<port id="0" precision="FP16">
					<dim>1</dim>
					<dim>1</dim>
				</port>
			</output>
		</layer>
		<layer id="320" name="Constant_23407" type="Convert" version="opset1">
			<data destination_type="f32"/>
			<rt_info>
				<attribute name="decompression" version="0"/>
			</rt_info>
			<input>
				<port id="0" precision="FP16">
					<dim>1</dim>
					<dim>1</dim>
				</port>
			</input>
			<output>
				<port id="1" precision="FP32">
					<dim>1</dim>
					<dim>1</dim>
				</port>
			</output>
		</layer>
		<layer id="321" name="1305" type="Multiply" version="opset1">
			<data auto_broadcast="numpy"/>
			<rt_info>
				<attribute name="fused_names" version="0" value="1305, nncf_module.bert.encoder.layer.1.attention.self.value.weight"/>
			</rt_info>
			<input>
				<port id="0" precision="FP32">
					<dim>512</dim>
					<dim>512</dim>
				</port>
				<port id="1" precision="FP32">
					<dim>1</dim>
					<dim>1</dim>
				</port>
			</input>
			<output>
				<port id="2" precision="FP32" names="1305">
					<dim>512</dim>
					<dim>512</dim>
				</port>
			</output>
		</layer>
		<layer id="322" name="Constant_867" type="Const" version="opset1">
			<data element_type="i64" shape="2" offset="16154652" size="16"/>
			<rt_info>
				<attribute name="fused_names" version="0" value="Constant_867"/>
			</rt_info>
			<output>
				<port id="0" precision="I64">
					<dim>2</dim>
				</port>
			</output>
		</layer>
		<layer id="323" name="1306" type="Transpose" version="opset1">
			<rt_info>
				<attribute name="fused_names" version="0" value="1306"/>
			</rt_info>
			<input>
				<port id="0" precision="FP32">
					<dim>512</dim>
					<dim>512</dim>
				</port>
				<port id="1" precision="I64">
					<dim>2</dim>
				</port>
			</input>
			<output>
				<port id="2" precision="FP32" names="1306">
					<dim>512</dim>
					<dim>512</dim>
				</port>
			</output>
		</layer>
		<layer id="324" name="1307" type="MatMul" version="opset1">
			<data transpose_a="false" transpose_b="false"/>
			<rt_info>
				<attribute name="fused_names" version="0" value="1307"/>
			</rt_info>
			<input>
				<port id="0" precision="FP32">
					<dim>1</dim>
					<dim>384</dim>
					<dim>512</dim>
				</port>
				<port id="1" precision="FP32">
					<dim>512</dim>
					<dim>512</dim>
				</port>
			</input>
			<output>
				<port id="2" precision="FP32" names="1307">
					<dim>1</dim>
					<dim>384</dim>
					<dim>512</dim>
				</port>
			</output>
		</layer>
		<layer id="325" name="Constant_19438_compressed" type="Const" version="opset1">
			<data element_type="f16" shape="1, 1, 512" offset="18790646" size="1024"/>
			<output>
				<port id="0" precision="FP16">
					<dim>1</dim>
					<dim>1</dim>
					<dim>512</dim>
				</port>
			</output>
		</layer>
		<layer id="326" name="Constant_19438" type="Convert" version="opset1">
			<data destination_type="f32"/>
			<rt_info>
				<attribute name="decompression" version="0"/>
			</rt_info>
			<input>
				<port id="0" precision="FP16">
					<dim>1</dim>
					<dim>1</dim>
					<dim>512</dim>
				</port>
			</input>
			<output>
				<port id="1" precision="FP32">
					<dim>1</dim>
					<dim>1</dim>
					<dim>512</dim>
				</port>
			</output>
		</layer>
		<layer id="327" name="1308" type="Add" version="opset1">
			<data auto_broadcast="numpy"/>
			<rt_info>
				<attribute name="fused_names" version="0" value="1308"/>
			</rt_info>
			<input>
				<port id="0" precision="FP32">
					<dim>1</dim>
					<dim>384</dim>
					<dim>512</dim>
				</port>
				<port id="1" precision="FP32">
					<dim>1</dim>
					<dim>1</dim>
					<dim>512</dim>
				</port>
			</input>
			<output>
				<port id="2" precision="FP32" names="1308">
					<dim>1</dim>
					<dim>384</dim>
					<dim>512</dim>
				</port>
			</output>
		</layer>
		<layer id="328" name="1350" type="Const" version="opset1">
			<data element_type="i64" shape="4" offset="16155692" size="32"/>
			<rt_info>
				<attribute name="fused_names" version="0" value="1350, 3383, 3384"/>
			</rt_info>
			<output>
				<port id="0" precision="I64">
					<dim>4</dim>
				</port>
			</output>
		</layer>
		<layer id="329" name="1351" type="Reshape" version="opset1">
			<data special_zero="true"/>
			<rt_info>
				<attribute name="fused_names" version="0" value="1351"/>
			</rt_info>
			<input>
				<port id="0" precision="FP32">
					<dim>1</dim>
					<dim>384</dim>
					<dim>512</dim>
				</port>
				<port id="1" precision="I64">
					<dim>4</dim>
				</port>
			</input>
			<output>
				<port id="2" precision="FP32" names="1351">
					<dim>1</dim>
					<dim>384</dim>
					<dim>8</dim>
					<dim>64</dim>
				</port>
			</output>
		</layer>
		<layer id="330" name="Constant_1056" type="Const" version="opset1">
			<data element_type="i64" shape="4" offset="16155724" size="32"/>
			<rt_info>
				<attribute name="fused_names" version="0" value="Constant_1056"/>
			</rt_info>
			<output>
				<port id="0" precision="I64">
					<dim>4</dim>
				</port>
			</output>
		</layer>
		<layer id="331" name="1352" type="Transpose" version="opset1">
			<rt_info>
				<attribute name="fused_names" version="0" value="1352"/>
			</rt_info>
			<input>
				<port id="0" precision="FP32">
					<dim>1</dim>
					<dim>384</dim>
					<dim>8</dim>
					<dim>64</dim>
				</port>
				<port id="1" precision="I64">
					<dim>4</dim>
				</port>
			</input>
			<output>
				<port id="2" precision="FP32" names="1352">
					<dim>1</dim>
					<dim>8</dim>
					<dim>384</dim>
					<dim>64</dim>
				</port>
			</output>
		</layer>
		<layer id="332" name="1359" type="MatMul" version="opset1">
			<data transpose_a="false" transpose_b="false"/>
			<rt_info>
				<attribute name="fused_names" version="0" value="1359"/>
			</rt_info>
			<input>
				<port id="0" precision="FP32">
					<dim>1</dim>
					<dim>8</dim>
					<dim>384</dim>
					<dim>384</dim>
				</port>
				<port id="1" precision="FP32">
					<dim>1</dim>
					<dim>8</dim>
					<dim>384</dim>
					<dim>64</dim>
				</port>
			</input>
			<output>
				<port id="2" precision="FP32" names="1359">
					<dim>1</dim>
					<dim>8</dim>
					<dim>384</dim>
					<dim>64</dim>
				</port>
			</output>
		</layer>
		<layer id="333" name="Constant_19439_compressed" type="Const" version="opset1">
			<data element_type="f16" shape="1, 1, 1, 1" offset="18791670" size="2"/>
			<output>
				<port id="0" precision="FP16">
					<dim>1</dim>
					<dim>1</dim>
					<dim>1</dim>
					<dim>1</dim>
				</port>
			</output>
		</layer>
		<layer id="334" name="Constant_19439" type="Convert" version="opset1">
			<data destination_type="f32"/>
			<rt_info>
				<attribute name="decompression" version="0"/>
			</rt_info>
			<input>
				<port id="0" precision="FP16">
					<dim>1</dim>
					<dim>1</dim>
					<dim>1</dim>
					<dim>1</dim>
				</port>
			</input>
			<output>
				<port id="1" precision="FP32">
					<dim>1</dim>
					<dim>1</dim>
					<dim>1</dim>
					<dim>1</dim>
				</port>
			</output>
		</layer>
		<layer id="335" name="Constant_19440_compressed" type="Const" version="opset1">
			<data element_type="f16" shape="1, 1, 1, 1" offset="18791672" size="2"/>
			<output>
				<port id="0" precision="FP16">
					<dim>1</dim>
					<dim>1</dim>
					<dim>1</dim>
					<dim>1</dim>
				</port>
			</output>
		</layer>
		<layer id="336" name="Constant_19440" type="Convert" version="opset1">
			<data destination_type="f32"/>
			<rt_info>
				<attribute name="decompression" version="0"/>
			</rt_info>
			<input>
				<port id="0" precision="FP16">
					<dim>1</dim>
					<dim>1</dim>
					<dim>1</dim>
					<dim>1</dim>
				</port>
			</input>
			<output>
				<port id="1" precision="FP32">
					<dim>1</dim>
					<dim>1</dim>
					<dim>1</dim>
					<dim>1</dim>
				</port>
			</output>
		</layer>
		<layer id="337" name="Constant_19441_compressed" type="Const" version="opset1">
			<data element_type="f16" shape="1, 1, 1, 1" offset="18791670" size="2"/>
			<output>
				<port id="0" precision="FP16">
					<dim>1</dim>
					<dim>1</dim>
					<dim>1</dim>
					<dim>1</dim>
				</port>
			</output>
		</layer>
		<layer id="338" name="Constant_19441" type="Convert" version="opset1">
			<data destination_type="f32"/>
			<rt_info>
				<attribute name="decompression" version="0"/>
			</rt_info>
			<input>
				<port id="0" precision="FP16">
					<dim>1</dim>
					<dim>1</dim>
					<dim>1</dim>
					<dim>1</dim>
				</port>
			</input>
			<output>
				<port id="1" precision="FP32">
					<dim>1</dim>
					<dim>1</dim>
					<dim>1</dim>
					<dim>1</dim>
				</port>
			</output>
		</layer>
		<layer id="339" name="Constant_19442_compressed" type="Const" version="opset1">
			<data element_type="f16" shape="1, 1, 1, 1" offset="18791672" size="2"/>
			<output>
				<port id="0" precision="FP16">
					<dim>1</dim>
					<dim>1</dim>
					<dim>1</dim>
					<dim>1</dim>
				</port>
			</output>
		</layer>
		<layer id="340" name="Constant_19442" type="Convert" version="opset1">
			<data destination_type="f32"/>
			<rt_info>
				<attribute name="decompression" version="0"/>
			</rt_info>
			<input>
				<port id="0" precision="FP16">
					<dim>1</dim>
					<dim>1</dim>
					<dim>1</dim>
					<dim>1</dim>
				</port>
			</input>
			<output>
				<port id="1" precision="FP32">
					<dim>1</dim>
					<dim>1</dim>
					<dim>1</dim>
					<dim>1</dim>
				</port>
			</output>
		</layer>
		<layer id="341" name="1362" type="FakeQuantize" version="opset1">
			<data levels="256" auto_broadcast="numpy"/>
			<rt_info>
				<attribute name="fused_names" version="0" value="1362"/>
			</rt_info>
			<input>
				<port id="0" precision="FP32">
					<dim>1</dim>
					<dim>8</dim>
					<dim>384</dim>
					<dim>64</dim>
				</port>
				<port id="1" precision="FP32">
					<dim>1</dim>
…
		<edge from-layer="1997" from-port="2" to-layer="2000" to-port="0"/>
		<edge from-layer="1998" from-port="0" to-layer="1999" to-port="0"/>
		<edge from-layer="1999" from-port="1" to-layer="2000" to-port="1"/>
		<edge from-layer="2000" from-port="2" to-layer="2002" to-port="0"/>
		<edge from-layer="2001" from-port="0" to-layer="2002" to-port="1"/>
		<edge from-layer="2002" from-port="2" to-layer="2004" to-port="0"/>
		<edge from-layer="2003" from-port="0" to-layer="2004" to-port="1"/>
		<edge from-layer="2004" from-port="2" to-layer="2023" to-port="0"/>
		<edge from-layer="2005" from-port="0" to-layer="2006" to-port="0"/>
		<edge from-layer="2006" from-port="1" to-layer="2009" to-port="0"/>
		<edge from-layer="2007" from-port="0" to-layer="2008" to-port="0"/>
		<edge from-layer="2008" from-port="1" to-layer="2009" to-port="1"/>
		<edge from-layer="2009" from-port="2" to-layer="2011" to-port="0"/>
		<edge from-layer="2010" from-port="0" to-layer="2011" to-port="1"/>
		<edge from-layer="2011" from-port="2" to-layer="2012" to-port="1"/>
		<edge from-layer="2012" from-port="2" to-layer="2015" to-port="0"/>
		<edge from-layer="2013" from-port="0" to-layer="2014" to-port="0"/>
		<edge from-layer="2014" from-port="1" to-layer="2015" to-port="1"/>
		<edge from-layer="2015" from-port="2" to-layer="2017" to-port="0"/>
		<edge from-layer="2016" from-port="0" to-layer="2017" to-port="1"/>
		<edge from-layer="2017" from-port="2" to-layer="2019" to-port="0"/>
		<edge from-layer="2018" from-port="0" to-layer="2019" to-port="1"/>
		<edge from-layer="2019" from-port="2" to-layer="2022" to-port="0"/>
		<edge from-layer="2020" from-port="0" to-layer="2021" to-port="0"/>
		<edge from-layer="2021" from-port="1" to-layer="2022" to-port="1"/>
		<edge from-layer="2022" from-port="2" to-layer="2023" to-port="1"/>
		<edge from-layer="2023" from-port="2" to-layer="2024" to-port="0"/>
		<edge from-layer="2024" from-port="2" to-layer="2025" to-port="0"/>
		<edge from-layer="2024" from-port="2" to-layer="2034" to-port="0"/>
		<edge from-layer="2025" from-port="1" to-layer="2029" to-port="0"/>
		<edge from-layer="2025" from-port="1" to-layer="2036" to-port="1"/>
		<edge from-layer="2026" from-port="0" to-layer="2029" to-port="1"/>
		<edge from-layer="2027" from-port="0" to-layer="2029" to-port="2"/>
		<edge from-layer="2028" from-port="0" to-layer="2029" to-port="3"/>
		<edge from-layer="2029" from-port="4" to-layer="2031" to-port="0"/>
		<edge from-layer="2030" from-port="0" to-layer="2031" to-port="1"/>
		<edge from-layer="2031" from-port="2" to-layer="2033" to-port="0"/>
		<edge from-layer="2032" from-port="0" to-layer="2033" to-port="1"/>
		<edge from-layer="2033" from-port="2" to-layer="2034" to-port="1"/>
		<edge from-layer="2034" from-port="2" to-layer="2035" to-port="0"/>
		<edge from-layer="2035" from-port="1" to-layer="2036" to-port="0"/>
		<edge from-layer="2036" from-port="2" to-layer="2052" to-port="0"/>
		<edge from-layer="2037" from-port="0" to-layer="2038" to-port="0"/>
		<edge from-layer="2038" from-port="1" to-layer="2041" to-port="0"/>
		<edge from-layer="2039" from-port="0" to-layer="2040" to-port="0"/>
		<edge from-layer="2040" from-port="1" to-layer="2041" to-port="1"/>
		<edge from-layer="2041" from-port="2" to-layer="2043" to-port="0"/>
		<edge from-layer="2042" from-port="0" to-layer="2043" to-port="1"/>
		<edge from-layer="2043" from-port="2" to-layer="2044" to-port="1"/>
		<edge from-layer="2044" from-port="2" to-layer="2047" to-port="0"/>
		<edge from-layer="2045" from-port="0" to-layer="2046" to-port="0"/>
		<edge from-layer="2046" from-port="1" to-layer="2047" to-port="1"/>
		<edge from-layer="2047" from-port="2" to-layer="2049" to-port="0"/>
		<edge from-layer="2048" from-port="0" to-layer="2049" to-port="1"/>
		<edge from-layer="2049" from-port="2" to-layer="2051" to-port="0"/>
		<edge from-layer="2050" from-port="0" to-layer="2051" to-port="1"/>
		<edge from-layer="2051" from-port="2" to-layer="2052" to-port="1"/>
		<edge from-layer="2052" from-port="2" to-layer="2061" to-port="0"/>
		<edge from-layer="2053" from-port="0" to-layer="2054" to-port="0"/>
		<edge from-layer="2054" from-port="1" to-layer="2061" to-port="1"/>
		<edge from-layer="2055" from-port="0" to-layer="2056" to-port="0"/>
		<edge from-layer="2056" from-port="1" to-layer="2061" to-port="2"/>
		<edge from-layer="2057" from-port="0" to-layer="2058" to-port="0"/>
		<edge from-layer="2058" from-port="1" to-layer="2061" to-port="3"/>
		<edge from-layer="2059" from-port="0" to-layer="2060" to-port="0"/>
		<edge from-layer="2060" from-port="1" to-layer="2061" to-port="4"/>
		<edge from-layer="2061" from-port="5" to-layer="2063" to-port="0"/>
		<edge from-layer="2062" from-port="0" to-layer="2063" to-port="1"/>
		<edge from-layer="2063" from-port="2" to-layer="2065" to-port="0"/>
		<edge from-layer="2064" from-port="0" to-layer="2065" to-port="1"/>
		<edge from-layer="2065" from-port="2" to-layer="2073" to-port="0"/>
		<edge from-layer="2066" from-port="0" to-layer="2067" to-port="0"/>
		<edge from-layer="2067" from-port="1" to-layer="2070" to-port="0"/>
		<edge from-layer="2068" from-port="0" to-layer="2069" to-port="0"/>
		<edge from-layer="2069" from-port="1" to-layer="2070" to-port="1"/>
		<edge from-layer="2070" from-port="2" to-layer="2072" to-port="0"/>
		<edge from-layer="2071" from-port="0" to-layer="2072" to-port="1"/>
		<edge from-layer="2072" from-port="2" to-layer="2073" to-port="1"/>
		<edge from-layer="2073" from-port="2" to-layer="2076" to-port="0"/>
		<edge from-layer="2074" from-port="0" to-layer="2075" to-port="0"/>
		<edge from-layer="2075" from-port="1" to-layer="2076" to-port="1"/>
		<edge from-layer="2076" from-port="2" to-layer="2085" to-port="0"/>
		<edge from-layer="2077" from-port="0" to-layer="2078" to-port="0"/>
		<edge from-layer="2078" from-port="1" to-layer="2085" to-port="1"/>
		<edge from-layer="2079" from-port="0" to-layer="2080" to-port="0"/>
		<edge from-layer="2080" from-port="1" to-layer="2085" to-port="2"/>
		<edge from-layer="2081" from-port="0" to-layer="2082" to-port="0"/>
		<edge from-layer="2082" from-port="1" to-layer="2085" to-port="3"/>
		<edge from-layer="2083" from-port="0" to-layer="2084" to-port="0"/>
		<edge from-layer="2084" from-port="1" to-layer="2085" to-port="4"/>
		<edge from-layer="2085" from-port="5" to-layer="2086" to-port="0"/>
		<edge from-layer="2086" from-port="2" to-layer="2088" to-port="0"/>
		<edge from-layer="2087" from-port="0" to-layer="2088" to-port="1"/>
		<edge from-layer="2088" from-port="2" to-layer="2091" to-port="0"/>
		<edge from-layer="2089" from-port="0" to-layer="2090" to-port="0"/>
		<edge from-layer="2090" from-port="1" to-layer="2091" to-port="1"/>
		<edge from-layer="2091" from-port="2" to-layer="2094" to-port="0"/>
		<edge from-layer="2092" from-port="0" to-layer="2093" to-port="0"/>
		<edge from-layer="2093" from-port="1" to-layer="2094" to-port="1"/>
		<edge from-layer="2094" from-port="2" to-layer="2103" to-port="0"/>
		<edge from-layer="2095" from-port="0" to-layer="2096" to-port="0"/>
		<edge from-layer="2096" from-port="1" to-layer="2103" to-port="1"/>
		<edge from-layer="2097" from-port="0" to-layer="2098" to-port="0"/>
		<edge from-layer="2098" from-port="1" to-layer="2103" to-port="2"/>
		<edge from-layer="2099" from-port="0" to-layer="2100" to-port="0"/>
		<edge from-layer="2100" from-port="1" to-layer="2103" to-port="3"/>
		<edge from-layer="2101" from-port="0" to-layer="2102" to-port="0"/>
		<edge from-layer="2102" from-port="1" to-layer="2103" to-port="4"/>
		<edge from-layer="2103" from-port="5" to-layer="2187" to-port="1"/>
		<edge from-layer="2103" from-port="5" to-layer="2111" to-port="0"/>
		<edge from-layer="2104" from-port="0" to-layer="2105" to-port="0"/>
		<edge from-layer="2105" from-port="1" to-layer="2108" to-port="0"/>
		<edge from-layer="2106" from-port="0" to-layer="2107" to-port="0"/>
		<edge from-layer="2107" from-port="1" to-layer="2108" to-port="1"/>
		<edge from-layer="2108" from-port="2" to-layer="2110" to-port="0"/>
		<edge from-layer="2109" from-port="0" to-layer="2110" to-port="1"/>
		<edge from-layer="2110" from-port="2" to-layer="2111" to-port="1"/>
		<edge from-layer="2111" from-port="2" to-layer="2114" to-port="0"/>
		<edge from-layer="2112" from-port="0" to-layer="2113" to-port="0"/>
		<edge from-layer="2113" from-port="1" to-layer="2114" to-port="1"/>
		<edge from-layer="2114" from-port="2" to-layer="2115" to-port="0"/>
		<edge from-layer="2115" from-port="1" to-layer="2124" to-port="0"/>
		<edge from-layer="2116" from-port="0" to-layer="2117" to-port="0"/>
		<edge from-layer="2117" from-port="1" to-layer="2124" to-port="1"/>
		<edge from-layer="2118" from-port="0" to-layer="2119" to-port="0"/>
		<edge from-layer="2119" from-port="1" to-layer="2124" to-port="2"/>
		<edge from-layer="2120" from-port="0" to-layer="2121" to-port="0"/>
		<edge from-layer="2121" from-port="1" to-layer="2124" to-port="3"/>
		<edge from-layer="2122" from-port="0" to-layer="2123" to-port="0"/>
		<edge from-layer="2123" from-port="1" to-layer="2124" to-port="4"/>
		<edge from-layer="2124" from-port="5" to-layer="2132" to-port="0"/>
		<edge from-layer="2125" from-port="0" to-layer="2126" to-port="0"/>
		<edge from-layer="2126" from-port="1" to-layer="2129" to-port="0"/>
		<edge from-layer="2127" from-port="0" to-layer="2128" to-port="0"/>
		<edge from-layer="2128" from-port="1" to-layer="2129" to-port="1"/>
		<edge from-layer="2129" from-port="2" to-layer="2131" to-port="0"/>
		<edge from-layer="2130" from-port="0" to-layer="2131" to-port="1"/>
		<edge from-layer="2131" from-port="2" to-layer="2132" to-port="1"/>
		<edge from-layer="2132" from-port="2" to-layer="2135" to-port="0"/>
		<edge from-layer="2133" from-port="0" to-layer="2134" to-port="0"/>
		<edge from-layer="2134" from-port="1" to-layer="2135" to-port="1"/>
		<edge from-layer="2135" from-port="2" to-layer="2136" to-port="0"/>
		<edge from-layer="2136" from-port="1" to-layer="2145" to-port="0"/>
		<edge from-layer="2137" from-port="0" to-layer="2138" to-port="0"/>
		<edge from-layer="2138" from-port="1" to-layer="2145" to-port="1"/>
		<edge from-layer="2139" from-port="0" to-layer="2140" to-port="0"/>
		<edge from-layer="2140" from-port="1" to-layer="2145" to-port="2"/>
		<edge from-layer="2141" from-port="0" to-layer="2142" to-port="0"/>
		<edge from-layer="2142" from-port="1" to-layer="2145" to-port="3"/>
		<edge from-layer="2143" from-port="0" to-layer="2144" to-port="0"/>
		<edge from-layer="2144" from-port="1" to-layer="2145" to-port="4"/>
		<edge from-layer="2145" from-port="5" to-layer="2153" to-port="0"/>
		<edge from-layer="2146" from-port="0" to-layer="2147" to-port="0"/>
		<edge from-layer="2147" from-port="1" to-layer="2150" to-port="0"/>
		<edge from-layer="2148" from-port="0" to-layer="2149" to-port="0"/>
		<edge from-layer="2149" from-port="1" to-layer="2150" to-port="1"/>
		<edge from-layer="2150" from-port="2" to-layer="2152" to-port="0"/>
		<edge from-layer="2151" from-port="0" to-layer="2152" to-port="1"/>
		<edge from-layer="2152" from-port="2" to-layer="2153" to-port="1"/>
		<edge from-layer="2153" from-port="2" to-layer="2156" to-port="0"/>
		<edge from-layer="2154" from-port="0" to-layer="2155" to-port="0"/>
		<edge from-layer="2155" from-port="1" to-layer="2156" to-port="1"/>
		<edge from-layer="2156" from-port="2" to-layer="2157" to-port="0"/>
		<edge from-layer="2157" from-port="1" to-layer="2166" to-port="0"/>
		<edge from-layer="2158" from-port="0" to-layer="2159" to-port="0"/>
		<edge from-layer="2159" from-port="1" to-layer="2166" to-port="1"/>
		<edge from-layer="2160" from-port="0" to-layer="2161" to-port="0"/>
		<edge from-layer="2161" from-port="1" to-layer="2166" to-port="2"/>
		<edge from-layer="2162" from-port="0" to-layer="2163" to-port="0"/>
		<edge from-layer="2163" from-port="1" to-layer="2166" to-port="3"/>
		<edge from-layer="2164" from-port="0" to-layer="2165" to-port="0"/>
		<edge from-layer="2165" from-port="1" to-layer="2166" to-port="4"/>
		<edge from-layer="2166" from-port="5" to-layer="2174" to-port="0"/>
		<edge from-layer="2167" from-port="0" to-layer="2168" to-port="0"/>
		<edge from-layer="2168" from-port="1" to-layer="2171" to-port="0"/>
		<edge from-layer="2169" from-port="0" to-layer="2170" to-port="0"/>
		<edge from-layer="2170" from-port="1" to-layer="2171" to-port="1"/>
		<edge from-layer="2171" from-port="2" to-layer="2173" to-port="0"/>
		<edge from-layer="2172" from-port="0" to-layer="2173" to-port="1"/>
		<edge from-layer="2173" from-port="2" to-layer="2174" to-port="1"/>
		<edge from-layer="2174" from-port="2" to-layer="2177" to-port="0"/>
		<edge from-layer="2175" from-port="0" to-layer="2176" to-port="0"/>
		<edge from-layer="2176" from-port="1" to-layer="2177" to-port="1"/>
		<edge from-layer="2177" from-port="2" to-layer="2186" to-port="0"/>
		<edge from-layer="2178" from-port="0" to-layer="2179" to-port="0"/>
		<edge from-layer="2179" from-port="1" to-layer="2186" to-port="1"/>
		<edge from-layer="2180" from-port="0" to-layer="2181" to-port="0"/>
		<edge from-layer="2181" from-port="1" to-layer="2186" to-port="2"/>
		<edge from-layer="2182" from-port="0" to-layer="2183" to-port="0"/>
		<edge from-layer="2183" from-port="1" to-layer="2186" to-port="3"/>
		<edge from-layer="2184" from-port="0" to-layer="2185" to-port="0"/>
		<edge from-layer="2185" from-port="1" to-layer="2186" to-port="4"/>
		<edge from-layer="2186" from-port="5" to-layer="2187" to-port="0"/>
		<edge from-layer="2187" from-port="2" to-layer="2189" to-port="0"/>
		<edge from-layer="2188" from-port="0" to-layer="2189" to-port="1"/>
		<edge from-layer="2189" from-port="2" to-layer="2192" to-port="0"/>
		<edge from-layer="2190" from-port="0" to-layer="2191" to-port="0"/>
		<edge from-layer="2191" from-port="1" to-layer="2192" to-port="1"/>
		<edge from-layer="2192" from-port="2" to-layer="2195" to-port="0"/>
		<edge from-layer="2193" from-port="0" to-layer="2194" to-port="0"/>
		<edge from-layer="2194" from-port="1" to-layer="2195" to-port="1"/>
		<edge from-layer="2195" from-port="2" to-layer="2204" to-port="0"/>
		<edge from-layer="2196" from-port="0" to-layer="2197" to-port="0"/>
		<edge from-layer="2197" from-port="1" to-layer="2204" to-port="1"/>
		<edge from-layer="2198" from-port="0" to-layer="2199" to-port="0"/>
		<edge from-layer="2199" from-port="1" to-layer="2204" to-port="2"/>
		<edge from-layer="2200" from-port="0" to-layer="2201" to-port="0"/>
		<edge from-layer="2201" from-port="1" to-layer="2204" to-port="3"/>
		<edge from-layer="2202" from-port="0" to-layer="2203" to-port="0"/>
		<edge from-layer="2203" from-port="1" to-layer="2204" to-port="4"/>
		<edge from-layer="2204" from-port="5" to-layer="2301" to-port="1"/>
		<edge from-layer="2204" from-port="5" to-layer="2259" to-port="0"/>
		<edge from-layer="2204" from-port="5" to-layer="2227" to-port="0"/>
		<edge from-layer="2204" from-port="5" to-layer="2212" to-port="0"/>
		<edge from-layer="2205" from-port="0" to-layer="2206" to-port="0"/>
		<edge from-layer="2206" from-port="1" to-layer="2209" to-port="0"/>
		<edge from-layer="2207" from-port="0" to-layer="2208" to-port="0"/>
		<edge from-layer="2208" from-port="1" to-layer="2209" to-port="1"/>
		<edge from-layer="2209" from-port="2" to-layer="2211" to-port="0"/>
		<edge from-layer="2210" from-port="0" to-layer="2211" to-port="1"/>
		<edge from-layer="2211" from-port="2" to-layer="2212" to-port="1"/>
		<edge from-layer="2212" from-port="2" to-layer="2215" to-port="0"/>
		<edge from-layer="2213" from-port="0" to-layer="2214" to-port="0"/>
		<edge from-layer="2214" from-port="1" to-layer="2215" to-port="1"/>
		<edge from-layer="2215" from-port="2" to-layer="2217" to-port="0"/>
		<edge from-layer="2216" from-port="0" to-layer="2217" to-port="1"/>
		<edge from-layer="2217" from-port="2" to-layer="2219" to-port="0"/>
		<edge from-layer="2218" from-port="0" to-layer="2219" to-port="1"/>
		<edge from-layer="2219" from-port="2" to-layer="2238" to-port="0"/>
		<edge from-layer="2220" from-port="0" to-layer="2221" to-port="0"/>
		<edge from-layer="2221" from-port="1" to-layer="2224" to-port="0"/>
		<edge from-layer="2222" from-port="0" to-layer="2223" to-port="0"/>
		<edge from-layer="2223" from-port="1" to-layer="2224" to-port="1"/>
		<edge from-layer="2224" from-port="2" to-layer="2226" to-port="0"/>
		<edge from-layer="2225" from-port="0" to-layer="2226" to-port="1"/>
		<edge from-layer="2226" from-port="2" to-layer="2227" to-port="1"/>
		<edge from-layer="2227" from-port="2" to-layer="2230" to-port="0"/>
		<edge from-layer="2228" from-port="0" to-layer="2229" to-port="0"/>
		<edge from-layer="2229" from-port="1" to-layer="2230" to-port="1"/>
		<edge from-layer="2230" from-port="2" to-layer="2232" to-port="0"/>
		<edge from-layer="2231" from-port="0" to-layer="2232" to-port="1"/>
		<edge from-layer="2232" from-port="2" to-layer="2234" to-port="0"/>
		<edge from-layer="2233" from-port="0" to-layer="2234" to-port="1"/>
		<edge from-layer="2234" from-port="2" to-layer="2237" to-port="0"/>
		<edge from-layer="2235" from-port="0" to-layer="2236" to-port="0"/>
		<edge from-layer="2236" from-port="1" to-layer="2237" to-port="1"/>
		<edge from-layer="2237" from-port="2" to-layer="2238" to-port="1"/>
		<edge from-layer="2238" from-port="2" to-layer="2239" to-port="0"/>
		<edge from-layer="2239" from-port="2" to-layer="2240" to-port="0"/>
		<edge from-layer="2239" from-port="2" to-layer="2249" to-port="0"/>
		<edge from-layer="2240" from-port="1" to-layer="2244" to-port="0"/>
		<edge from-layer="2240" from-port="1" to-layer="2251" to-port="1"/>
		<edge from-layer="2241" from-port="0" to-layer="2244" to-port="1"/>
		<edge from-layer="2242" from-port="0" to-layer="2244" to-port="2"/>
		<edge from-layer="2243" from-port="0" to-layer="2244" to-port="3"/>
		<edge from-layer="2244" from-port="4" to-layer="2246" to-port="0"/>
		<edge from-layer="2245" from-port="0" to-layer="2246" to-port="1"/>
		<edge from-layer="2246" from-port="2" to-layer="2248" to-port="0"/>
		<edge from-layer="2247" from-port="0" to-layer="2248" to-port="1"/>
		<edge from-layer="2248" from-port="2" to-layer="2249" to-port="1"/>
		<edge from-layer="2249" from-port="2" to-layer="2250" to-port="0"/>
		<edge from-layer="2250" from-port="1" to-layer="2251" to-port="0"/>
		<edge from-layer="2251" from-port="2" to-layer="2267" to-port="0"/>
		<edge from-layer="2252" from-port="0" to-layer="2253" to-port="0"/>
		<edge from-layer="2253" from-port="1" to-layer="2256" to-port="0"/>
		<edge from-layer="2254" from-port="0" to-layer="2255" to-port="0"/>
		<edge from-layer="2255" from-port="1" to-layer="2256" to-port="1"/>
		<edge from-layer="2256" from-port="2" to-layer="2258" to-port="0"/>
		<edge from-layer="2257" from-port="0" to-layer="2258" to-port="1"/>
		<edge from-layer="2258" from-port="2" to-layer="2259" to-port="1"/>
		<edge from-layer="2259" from-port="2" to-layer="2262" to-port="0"/>
		<edge from-layer="2260" from-port="0" to-layer="2261" to-port="0"/>
		<edge from-layer="2261" from-port="1" to-layer="2262" to-port="1"/>
		<edge from-layer="2262" from-port="2" to-layer="2264" to-port="0"/>
		<edge from-layer="2263" from-port="0" to-layer="2264" to-port="1"/>
		<edge from-layer="2264" from-port="2" to-layer="2266" to-port="0"/>
		<edge from-layer="2265" from-port="0" to-layer="2266" to-port="1"/>
		<edge from-layer="2266" from-port="2" to-layer="2267" to-port="1"/>
		<edge from-layer="2267" from-port="2" to-layer="2276" to-port="0"/>
		<edge from-layer="2268" from-port="0" to-layer="2269" to-port="0"/>
		<edge from-layer="2269" from-port="1" to-layer="2276" to-port="1"/>
		<edge from-layer="2270" from-port="0" to-layer="2271" to-port="0"/>
		<edge from-layer="2271" from-port="1" to-layer="2276" to-port="2"/>
		<edge from-layer="2272" from-port="0" to-layer="2273" to-port="0"/>
		<edge from-layer="2273" from-port="1" to-layer="2276" to-port="3"/>
		<edge from-layer="2274" from-port="0" to-layer="2275" to-port="0"/>
		<edge from-layer="2275" from-port="1" to-layer="2276" to-port="4"/>
		<edge from-layer="2276" from-port="5" to-layer="2278" to-port="0"/>
		<edge from-layer="2277" from-port="0" to-layer="2278" to-port="1"/>
		<edge from-layer="2278" from-port="2" to-layer="2280" to-port="0"/>
		<edge from-layer="2279" from-port="0" to-layer="2280" to-port="1"/>
		<edge from-layer="2280" from-port="2" to-layer="2288" to-port="0"/>
		<edge from-layer="2281" from-port="0" to-layer="2282" to-port="0"/>
		<edge from-layer="2282" from-port="1" to-layer="2285" to-port="0"/>
		<edge from-layer="2283" from-port="0" to-layer="2284" to-port="0"/>
		<edge from-layer="2284" from-port="1" to-layer="2285" to-port="1"/>
		<edge from-layer="2285" from-port="2" to-layer="2287" to-port="0"/>
		<edge from-layer="2286" from-port="0" to-layer="2287" to-port="1"/>
		<edge from-layer="2287" from-port="2" to-layer="2288" to-port="1"/>
		<edge from-layer="2288" from-port="2" to-layer="2291" to-port="0"/>
		<edge from-layer="2289" from-port="0" to-layer="2290" to-port="0"/>
		<edge from-layer="2290" from-port="1" to-layer="2291" to-port="1"/>
		<edge from-layer="2291" from-port="2" to-layer="2300" to-port="0"/>
		<edge from-layer="2292" from-port="0" to-layer="2293" to-port="0"/>
		<edge from-layer="2293" from-port="1" to-layer="2300" to-port="1"/>
		<edge from-layer="2294" from-port="0" to-layer="2295" to-port="0"/>
		<edge from-layer="2295" from-port="1" to-layer="2300" to-port="2"/>
		<edge from-layer="2296" from-port="0" to-layer="2297" to-port="0"/>
		<edge from-layer="2297" from-port="1" to-layer="2300" to-port="3"/>
		<edge from-layer="2298" from-port="0" to-layer="2299" to-port="0"/>
		<edge from-layer="2299" from-port="1" to-layer="2300" to-port="4"/>
		<edge from-layer="2300" from-port="5" to-layer="2301" to-port="0"/>
		<edge from-layer="2301" from-port="2" to-layer="2303" to-port="0"/>
		<edge from-layer="2302" from-port="0" to-layer="2303" to-port="1"/>
		<edge from-layer="2303" from-port="2" to-layer="2306" to-port="0"/>
		<edge from-layer="2304" from-port="0" to-layer="2305" to-port="0"/>
		<edge from-layer="2305" from-port="1" to-layer="2306" to-port="1"/>
		<edge from-layer="2306" from-port="2" to-layer="2309" to-port="0"/>
		<edge from-layer="2307" from-port="0" to-layer="2308" to-port="0"/>
		<edge from-layer="2308" from-port="1" to-layer="2309" to-port="1"/>
		<edge from-layer="2309" from-port="2" to-layer="2318" to-port="0"/>
		<edge from-layer="2310" from-port="0" to-layer="2311" to-port="0"/>
		<edge from-layer="2311" from-port="1" to-layer="2318" to-port="1"/>
		<edge from-layer="2312" from-port="0" to-layer="2313" to-port="0"/>
		<edge from-layer="2313" from-port="1" to-layer="2318" to-port="2"/>
		<edge from-layer="2314" from-port="0" to-layer="2315" to-port="0"/>
		<edge from-layer="2315" from-port="1" to-layer="2318" to-port="3"/>
		<edge from-layer="2316" from-port="0" to-layer="2317" to-port="0"/>
		<edge from-layer="2317" from-port="1" to-layer="2318" to-port="4"/>
		<edge from-layer="2318" from-port="5" to-layer="2326" to-port="0"/>
		<edge from-layer="2318" from-port="5" to-layer="2402" to-port="1"/>
		<edge from-layer="2319" from-port="0" to-layer="2320" to-port="0"/>
		<edge from-layer="2320" from-port="1" to-layer="2323" to-port="0"/>
		<edge from-layer="2321" from-port="0" to-layer="2322" to-port="0"/>
		<edge from-layer="2322" from-port="1" to-layer="2323" to-port="1"/>
		<edge from-layer="2323" from-port="2" to-layer="2325" to-port="0"/>
		<edge from-layer="2324" from-port="0" to-layer="2325" to-port="1"/>
		<edge from-layer="2325" from-port="2" to-layer="2326" to-port="1"/>
		<edge from-layer="2326" from-port="2" to-layer="2329" to-port="0"/>
		<edge from-layer="2327" from-port="0" to-layer="2328" to-port="0"/>
		<edge from-layer="2328" from-port="1" to-layer="2329" to-port="1"/>
		<edge from-layer="2329" from-port="2" to-layer="2330" to-port="0"/>
		<edge from-layer="2330" from-port="1" to-layer="2339" to-port="0"/>
		<edge from-layer="2331" from-port="0" to-layer="2332" to-port="0"/>
		<edge from-layer="2332" from-port="1" to-layer="2339" to-port="1"/>
		<edge from-layer="2333" from-port="0" to-layer="2334" to-port="0"/>
		<edge from-layer="2334" from-port="1" to-layer="2339" to-port="2"/>
		<edge from-layer="2335" from-port="0" to-layer="2336" to-port="0"/>
		<edge from-layer="2336" from-port="1" to-layer="2339" to-port="3"/>
		<edge from-layer="2337" from-port="0" to-layer="2338" to-port="0"/>
		<edge from-layer="2338" from-port="1" to-layer="2339" to-port="4"/>
		<edge from-layer="2339" from-port="5" to-layer="2347" to-port="0"/>
		<edge from-layer="2340" from-port="0" to-layer="2341" to-port="0"/>
		<edge from-layer="2341" from-port="1" to-layer="2344" to-port="0"/>
		<edge from-layer="2342" from-port="0" to-layer="2343" to-port="0"/>
		<edge from-layer="2343" from-port="1" to-layer="2344" to-port="1"/>
		<edge from-layer="2344" from-port="2" to-layer="2346" to-port="0"/>
		<edge from-layer="2345" from-port="0" to-layer="2346" to-port="1"/>
		<edge from-layer="2346" from-port="2" to-layer="2347" to-port="1"/>
		<edge from-layer="2347" from-port="2" to-layer="2350" to-port="0"/>
		<edge from-layer="2348" from-port="0" to-layer="2349" to-port="0"/>
		<edge from-layer="2349" from-port="1" to-layer="2350" to-port="1"/>
		<edge from-layer="2350" from-port="2" to-layer="2351" to-port="0"/>
		<edge from-layer="2351" from-port="1" to-layer="2360" to-port="0"/>
		<edge from-layer="2352" from-port="0" to-layer="2353" to-port="0"/>
		<edge from-layer="2353" from-port="1" to-layer="2360" to-port="1"/>
		<edge from-layer="2354" from-port="0" to-layer="2355" to-port="0"/>
		<edge from-layer="2355" from-port="1" to-layer="2360" to-port="2"/>
		<edge from-layer="2356" from-port="0" to-layer="2357" to-port="0"/>
		<edge from-layer="2357" from-port="1" to-layer="2360" to-port="3"/>
		<edge from-layer="2358" from-port="0" to-layer="2359" to-port="0"/>
		<edge from-layer="2359" from-port="1" to-layer="2360" to-port="4"/>
		<edge from-layer="2360" from-port="5" to-layer="2368" to-port="0"/>
		<edge from-layer="2361" from-port="0" to-layer="2362" to-port="0"/>
		<edge from-layer="2362" from-port="1" to-layer="2365" to-port="0"/>
		<edge from-layer="2363" from-port="0" to-layer="2364" to-port="0"/>
		<edge from-layer="2364" from-port="1" to-layer="2365" to-port="1"/>
		<edge from-layer="2365" from-port="2" to-layer="2367" to-port="0"/>
		<edge from-layer="2366" from-port="0" to-layer="2367" to-port="1"/>
		<edge from-layer="2367" from-port="2" to-layer="2368" to-port="1"/>
		<edge from-layer="2368" from-port="2" to-layer="2371" to-port="0"/>
		<edge from-layer="2369" from-port="0" to-layer="2370" to-port="0"/>
		<edge from-layer="2370" from-port="1" to-layer="2371" to-port="1"/>
		<edge from-layer="2371" from-port="2" to-layer="2372" to-port="0"/>
		<edge from-layer="2372" from-port="1" to-layer="2381" to-port="0"/>
		<edge from-layer="2373" from-port="0" to-layer="2374" to-port="0"/>
		<edge from-layer="2374" from-port="1" to-layer="2381" to-port="1"/>
		<edge from-layer="2375" from-port="0" to-layer="2376" to-port="0"/>
		<edge from-layer="2376" from-port="1" to-layer="2381" to-port="2"/>
		<edge from-layer="2377" from-port="0" to-layer="2378" to-port="0"/>
		<edge from-layer="2378" from-port="1" to-layer="2381" to-port="3"/>
		<edge from-layer="2379" from-port="0" to-layer="2380" to-port="0"/>
		<edge from-layer="2380" from-port="1" to-layer="2381" to-port="4"/>
		<edge from-layer="2381" from-port="5" to-layer="2389" to-port="0"/>
		<edge from-layer="2382" from-port="0" to-layer="2383" to-port="0"/>
		<edge from-layer="2383" from-port="1" to-layer="2386" to-port="0"/>
		<edge from-layer="2384" from-port="0" to-layer="2385" to-port="0"/>
		<edge from-layer="2385" from-port="1" to-layer="2386" to-port="1"/>
		<edge from-layer="2386" from-port="2" to-layer="2388" to-port="0"/>
		<edge from-layer="2387" from-port="0" to-layer="2388" to-port="1"/>
		<edge from-layer="2388" from-port="2" to-layer="2389" to-port="1"/>
		<edge from-layer="2389" from-port="2" to-layer="2392" to-port="0"/>
		<edge from-layer="2390" from-port="0" to-layer="2391" to-port="0"/>
		<edge from-layer="2391" from-port="1" to-layer="2392" to-port="1"/>
		<edge from-layer="2392" from-port="2" to-layer="2401" to-port="0"/>
		<edge from-layer="2393" from-port="0" to-layer="2394" to-port="0"/>
		<edge from-layer="2394" from-port="1" to-layer="2401" to-port="1"/>
		<edge from-layer="2395" from-port="0" to-layer="2396" to-port="0"/>
		<edge from-layer="2396" from-port="1" to-layer="2401" to-port="2"/>
		<edge from-layer="2397" from-port="0" to-layer="2398" to-port="0"/>
		<edge from-layer="2398" from-port="1" to-layer="2401" to-port="3"/>
		<edge from-layer="2399" from-port="0" to-layer="2400" to-port="0"/>
		<edge from-layer="2400" from-port="1" to-layer="2401" to-port="4"/>
		<edge from-layer="2401" from-port="5" to-layer="2402" to-port="0"/>
		<edge from-layer="2402" from-port="2" to-layer="2404" to-port="0"/>
		<edge from-layer="2403" from-port="0" to-layer="2404" to-port="1"/>
		<edge from-layer="2404" from-port="2" to-layer="2407" to-port="0"/>
		<edge from-layer="2405" from-port="0" to-layer="2406" to-port="0"/>
		<edge from-layer="2406" from-port="1" to-layer="2407" to-port="1"/>
		<edge from-layer="2407" from-port="2" to-layer="2410" to-port="0"/>
		<edge from-layer="2408" from-port="0" to-layer="2409" to-port="0"/>
		<edge from-layer="2409" from-port="1" to-layer="2410" to-port="1"/>
		<edge from-layer="2410" from-port="2" to-layer="2419" to-port="0"/>
		<edge from-layer="2411" from-port="0" to-layer="2412" to-port="0"/>
		<edge from-layer="2412" from-port="1" to-layer="2419" to-port="1"/>
		<edge from-layer="2413" from-port="0" to-layer="2414" to-port="0"/>
		<edge from-layer="2414" from-port="1" to-layer="2419" to-port="2"/>
		<edge from-layer="2415" from-port="0" to-layer="2416" to-port="0"/>
		<edge from-layer="2416" from-port="1" to-layer="2419" to-port="3"/>
		<edge from-layer="2417" from-port="0" to-layer="2418" to-port="0"/>
		<edge from-layer="2418" from-port="1" to-layer="2419" to-port="4"/>
		<edge from-layer="2419" from-port="5" to-layer="2474" to-port="0"/>
		<edge from-layer="2419" from-port="5" to-layer="2516" to-port="1"/>
		<edge from-layer="2419" from-port="5" to-layer="2427" to-port="0"/>
		<edge from-layer="2419" from-port="5" to-layer="2442" to-port="0"/>
		<edge from-layer="2420" from-port="0" to-layer="2421" to-port="0"/>
		<edge from-layer="2421" from-port="1" to-layer="2424" to-port="0"/>
		<edge from-layer="2422" from-port="0" to-layer="2423" to-port="0"/>
		<edge from-layer="2423" from-port="1" to-layer="2424" to-port="1"/>
		<edge from-layer="2424" from-port="2" to-layer="2426" to-port="0"/>
		<edge from-layer="2425" from-port="0" to-layer="2426" to-port="1"/>
		<edge from-layer="2426" from-port="2" to-layer="2427" to-port="1"/>
		<edge from-layer="2427" from-port="2" to-layer="2430" to-port="0"/>
		<edge from-layer="2428" from-port="0" to-layer="2429" to-port="0"/>
		<edge from-layer="2429" from-port="1" to-layer="2430" to-port="1"/>
		<edge from-layer="2430" from-port="2" to-layer="2432" to-port="0"/>
		<edge from-layer="2431" from-port="0" to-layer="2432" to-port="1"/>
		<edge from-layer="2432" from-port="2" to-layer="2434" to-port="0"/>
		<edge from-layer="2433" from-port="0" to-layer="2434" to-port="1"/>
		<edge from-layer="2434" from-port="2" to-layer="2453" to-port="0"/>
		<edge from-layer="2435" from-port="0" to-layer="2436" to-port="0"/>
		<edge from-layer="2436" from-port="1" to-layer="2439" to-port="0"/>
		<edge from-layer="2437" from-port="0" to-layer="2438" to-port="0"/>
		<edge from-layer="2438" from-port="1" to-layer="2439" to-port="1"/>
		<edge from-layer="2439" from-port="2" to-layer="2441" to-port="0"/>
		<edge from-layer="2440" from-port="0" to-layer="2441" to-port="1"/>
		<edge from-layer="2441" from-port="2" to-layer="2442" to-port="1"/>
		<edge from-layer="2442" from-port="2" to-layer="2445" to-port="0"/>
		<edge from-layer="2443" from-port="0" to-layer="2444" to-port="0"/>
		<edge from-layer="2444" from-port="1" to-layer="2445" to-port="1"/>
		<edge from-layer="2445" from-port="2" to-layer="2447" to-port="0"/>
		<edge from-layer="2446" from-port="0" to-layer="2447" to-port="1"/>
		<edge from-layer="2447" from-port="2" to-layer="2449" to-port="0"/>
		<edge from-layer="2448" from-port="0" to-layer="2449" to-port="1"/>
		<edge from-layer="2449" from-port="2" to-layer="2452" to-port="0"/>
		<edge from-layer="2450" from-port="0" to-layer="2451" to-port="0"/>
		<edge from-layer="2451" from-port="1" to-layer="2452" to-port="1"/>
		<edge from-layer="2452" from-port="2" to-layer="2453" to-port="1"/>
		<edge from-layer="2453" from-port="2" to-layer="2454" to-port="0"/>
		<edge from-layer="2454" from-port="2" to-layer="2455" to-port="0"/>
		<edge from-layer="2454" from-port="2" to-layer="2464" to-port="0"/>
		<edge from-layer="2455" from-port="1" to-layer="2459" to-port="0"/>
		<edge from-layer="2455" from-port="1" to-layer="2466" to-port="1"/>
		<edge from-layer="2456" from-port="0" to-layer="2459" to-port="1"/>
		<edge from-layer="2457" from-port="0" to-layer="2459" to-port="2"/>
		<edge from-layer="2458" from-port="0" to-layer="2459" to-port="3"/>
		<edge from-layer="2459" from-port="4" to-layer="2461" to-port="0"/>
		<edge from-layer="2460" from-port="0" to-layer="2461" to-port="1"/>
		<edge from-layer="2461" from-port="2" to-layer="2463" to-port="0"/>
		<edge from-layer="2462" from-port="0" to-layer="2463" to-port="1"/>
		<edge from-layer="2463" from-port="2" to-layer="2464" to-port="1"/>
		<edge from-layer="2464" from-port="2" to-layer="2465" to-port="0"/>
		<edge from-layer="2465" from-port="1" to-layer="2466" to-port="0"/>
		<edge from-layer="2466" from-port="2" to-layer="2482" to-port="0"/>
		<edge from-layer="2467" from-port="0" to-layer="2468" to-port="0"/>
		<edge from-layer="2468" from-port="1" to-layer="2471" to-port="0"/>
		<edge from-layer="2469" from-port="0" to-layer="2470" to-port="0"/>
		<edge from-layer="2470" from-port="1" to-layer="2471" to-port="1"/>
		<edge from-layer="2471" from-port="2" to-layer="2473" to-port="0"/>
		<edge from-layer="2472" from-port="0" to-layer="2473" to-port="1"/>
		<edge from-layer="2473" from-port="2" to-layer="2474" to-port="1"/>
		<edge from-layer="2474" from-port="2" to-layer="2477" to-port="0"/>
		<edge from-layer="2475" from-port="0" to-layer="2476" to-port="0"/>
		<edge from-layer="2476" from-port="1" to-layer="2477" to-port="1"/>
		<edge from-layer="2477" from-port="2" to-layer="2479" to-port="0"/>
		<edge from-layer="2478" from-port="0" to-layer="2479" to-port="1"/>
		<edge from-layer="2479" from-port="2" to-layer="2481" to-port="0"/>
		<edge from-layer="2480" from-port="0" to-layer="2481" to-port="1"/>
		<edge from-layer="2481" from-port="2" to-layer="2482" to-port="1"/>
		<edge from-layer="2482" from-port="2" to-layer="2491" to-port="0"/>
		<edge from-layer="2483" from-port="0" to-layer="2484" to-port="0"/>
		<edge from-layer="2484" from-port="1" to-layer="2491" to-port="1"/>
		<edge from-layer="2485" from-port="0" to-layer="2486" to-port="0"/>
		<edge from-layer="2486" from-port="1" to-layer="2491" to-port="2"/>
		<edge from-layer="2487" from-port="0" to-layer="2488" to-port="0"/>
		<edge from-layer="2488" from-port="1" to-layer="2491" to-port="3"/>
		<edge from-layer="2489" from-port="0" to-layer="2490" to-port="0"/>
		<edge from-layer="2490" from-port="1" to-layer="2491" to-port="4"/>
		<edge from-layer="2491" from-port="5" to-layer="2493" to-port="0"/>
		<edge from-layer="2492" from-port="0" to-layer="2493" to-port="1"/>
		<edge from-layer="2493" from-port="2" to-layer="2495" to-port="0"/>
		<edge from-layer="2494" from-port="0" to-layer="2495" to-port="1"/>
		<edge from-layer="2495" from-port="2" to-layer="2503" to-port="0"/>
		<edge from-layer="2496" from-port="0" to-layer="2497" to-port="0"/>
		<edge from-layer="2497" from-port="1" to-layer="2500" to-port="0"/>
		<edge from-layer="2498" from-port="0" to-layer="2499" to-port="0"/>
		<edge from-layer="2499" from-port="1" to-layer="2500" to-port="1"/>
		<edge from-layer="2500" from-port="2" to-layer="2502" to-port="0"/>
		<edge from-layer="2501" from-port="0" to-layer="2502" to-port="1"/>
		<edge from-layer="2502" from-port="2" to-layer="2503" to-port="1"/>
		<edge from-layer="2503" from-port="2" to-layer="2506" to-port="0"/>
		<edge from-layer="2504" from-port="0" to-layer="2505" to-port="0"/>
		<edge from-layer="2505" from-port="1" to-layer="2506" to-port="1"/>
		<edge from-layer="2506" from-port="2" to-layer="2515" to-port="0"/>
		<edge from-layer="2507" from-port="0" to-layer="2508" to-port="0"/>
		<edge from-layer="2508" from-port="1" to-layer="2515" to-port="1"/>
		<edge from-layer="2509" from-port="0" to-layer="2510" to-port="0"/>
		<edge from-layer="2510" from-port="1" to-layer="2515" to-port="2"/>
		<edge from-layer="2511" from-port="0" to-layer="2512" to-port="0"/>
		<edge from-layer="2512" from-port="1" to-layer="2515" to-port="3"/>
		<edge from-layer="2513" from-port="0" to-layer="2514" to-port="0"/>
		<edge from-layer="2514" from-port="1" to-layer="2515" to-port="4"/>
		<edge from-layer="2515" from-port="5" to-layer="2516" to-port="0"/>
		<edge from-layer="2516" from-port="2" to-layer="2518" to-port="0"/>
		<edge from-layer="2517" from-port="0" to-layer="2518" to-port="1"/>
		<edge from-layer="2518" from-port="2" to-layer="2521" to-port="0"/>
		<edge from-layer="2519" from-port="0" to-layer="2520" to-port="0"/>
		<edge from-layer="2520" from-port="1" to-layer="2521" to-port="1"/>
		<edge from-layer="2521" from-port="2" to-layer="2524" to-port="0"/>
		<edge from-layer="2522" from-port="0" to-layer="2523" to-port="0"/>
		<edge from-layer="2523" from-port="1" to-layer="2524" to-port="1"/>
		<edge from-layer="2524" from-port="2" to-layer="2533" to-port="0"/>
		<edge from-layer="2525" from-port="0" to-layer="2526" to-port="0"/>
		<edge from-layer="2526" from-port="1" to-layer="2533" to-port="1"/>
		<edge from-layer="2527" from-port="0" to-layer="2528" to-port="0"/>
		<edge from-layer="2528" from-port="1" to-layer="2533" to-port="2"/>
		<edge from-layer="2529" from-port="0" to-layer="2530" to-port="0"/>
		<edge from-layer="2530" from-port="1" to-layer="2533" to-port="3"/>
		<edge from-layer="2531" from-port="0" to-layer="2532" to-port="0"/>
		<edge from-layer="2532" from-port="1" to-layer="2533" to-port="4"/>
		<edge from-layer="2533" from-port="5" to-layer="2541" to-port="0"/>
		<edge from-layer="2533" from-port="5" to-layer="2617" to-port="1"/>
		<edge from-layer="2534" from-port="0" to-layer="2535" to-port="0"/>
		<edge from-layer="2535" from-port="1" to-layer="2538" to-port="0"/>
		<edge from-layer="2536" from-port="0" to-layer="2537" to-port="0"/>
		<edge from-layer="2537" from-port="1" to-layer="2538" to-port="1"/>
		<edge from-layer="2538" from-port="2" to-layer="2540" to-port="0"/>
		<edge from-layer="2539" from-port="0" to-layer="2540" to-port="1"/>
		<edge from-layer="2540" from-port="2" to-layer="2541" to-port="1"/>
		<edge from-layer="2541" from-port="2" to-layer="2544" to-port="0"/>
		<edge from-layer="2542" from-port="0" to-layer="2543" to-port="0"/>
		<edge from-layer="2543" from-port="1" to-layer="2544" to-port="1"/>
		<edge from-layer="2544" from-port="2" to-layer="2545" to-port="0"/>
		<edge from-layer="2545" from-port="1" to-layer="2554" to-port="0"/>
		<edge from-layer="2546" from-port="0" to-layer="2547" to-port="0"/>
		<edge from-layer="2547" from-port="1" to-layer="2554" to-port="1"/>
		<edge from-layer="2548" from-port="0" to-layer="2549" to-port="0"/>
		<edge from-layer="2549" from-port="1" to-layer="2554" to-port="2"/>
		<edge from-layer="2550" from-port="0" to-layer="2551" to-port="0"/>
		<edge from-layer="2551" from-port="1" to-layer="2554" to-port="3"/>
		<edge from-layer="2552" from-port="0" to-layer="2553" to-port="0"/>
		<edge from-layer="2553" from-port="1" to-layer="2554" to-port="4"/>
		<edge from-layer="2554" from-port="5" to-layer="2562" to-port="0"/>
		<edge from-layer="2555" from-port="0" to-layer="2556" to-port="0"/>
		<edge from-layer="2556" from-port="1" to-layer="2559" to-port="0"/>
		<edge from-layer="2557" from-port="0" to-layer="2558" to-port="0"/>
		<edge from-layer="2558" from-port="1" to-layer="2559" to-port="1"/>
		<edge from-layer="2559" from-port="2" to-layer="2561" to-port="0"/>
		<edge from-layer="2560" from-port="0" to-layer="2561" to-port="1"/>
		<edge from-layer="2561" from-port="2" to-layer="2562" to-port="1"/>
		<edge from-layer="2562" from-port="2" to-layer="2565" to-port="0"/>
		<edge from-layer="2563" from-port="0" to-layer="2564" to-port="0"/>
		<edge from-layer="2564" from-port="1" to-layer="2565" to-port="1"/>
		<edge from-layer="2565" from-port="2" to-layer="2566" to-port="0"/>
		<edge from-layer="2566" from-port="1" to-layer="2575" to-port="0"/>
		<edge from-layer="2567" from-port="0" to-layer="2568" to-port="0"/>
		<edge from-layer="2568" from-port="1" to-layer="2575" to-port="1"/>
		<edge from-layer="2569" from-port="0" to-layer="2570" to-port="0"/>
		<edge from-layer="2570" from-port="1" to-layer="2575" to-port="2"/>
		<edge from-layer="2571" from-port="0" to-layer="2572" to-port="0"/>
		<edge from-layer="2572" from-port="1" to-layer="2575" to-port="3"/>
		<edge from-layer="2573" from-port="0" to-layer="2574" to-port="0"/>
		<edge from-layer="2574" from-port="1" to-layer="2575" to-port="4"/>
		<edge from-layer="2575" from-port="5" to-layer="2583" to-port="0"/>
		<edge from-layer="2576" from-port="0" to-layer="2577" to-port="0"/>
		<edge from-layer="2577" from-port="1" to-layer="2580" to-port="0"/>
		<edge from-layer="2578" from-port="0" to-layer="2579" to-port="0"/>
		<edge from-layer="2579" from-port="1" to-layer="2580" to-port="1"/>
		<edge from-layer="2580" from-port="2" to-layer="2582" to-port="0"/>
		<edge from-layer="2581" from-port="0" to-layer="2582" to-port="1"/>
		<edge from-layer="2582" from-port="2" to-layer="2583" to-port="1"/>
		<edge from-layer="2583" from-port="2" to-layer="2586" to-port="0"/>
		<edge from-layer="2584" from-port="0" to-layer="2585" to-port="0"/>
		<edge from-layer="2585" from-port="1" to-layer="2586" to-port="1"/>
		<edge from-layer="2586" from-port="2" to-layer="2587" to-port="0"/>
		<edge from-layer="2587" from-port="1" to-layer="2596" to-port="0"/>
		<edge from-layer="2588" from-port="0" to-layer="2589" to-port="0"/>
		<edge from-layer="2589" from-port="1" to-layer="2596" to-port="1"/>
		<edge from-layer="2590" from-port="0" to-layer="2591" to-port="0"/>
		<edge from-layer="2591" from-port="1" to-layer="2596" to-port="2"/>
		<edge from-layer="2592" from-port="0" to-layer="2593" to-port="0"/>
		<edge from-layer="2593" from-port="1" to-layer="2596" to-port="3"/>
		<edge from-layer="2594" from-port="0" to-layer="2595" to-port="0"/>
		<edge from-layer="2595" from-port="1" to-layer="2596" to-port="4"/>
		<edge from-layer="2596" from-port="5" to-layer="2604" to-port="0"/>
		<edge from-layer="2597" from-port="0" to-layer="2598" to-port="0"/>
		<edge from-layer="2598" from-port="1" to-layer="2601" to-port="0"/>
		<edge from-layer="2599" from-port="0" to-layer="2600" to-port="0"/>
		<edge from-layer="2600" from-port="1" to-layer="2601" to-port="1"/>
		<edge from-layer="2601" from-port="2" to-layer="2603" to-port="0"/>
		<edge from-layer="2602" from-port="0" to-layer="2603" to-port="1"/>
		<edge from-layer="2603" from-port="2" to-layer="2604" to-port="1"/>
		<edge from-layer="2604" from-port="2" to-layer="2607" to-port="0"/>
		<edge from-layer="2605" from-port="0" to-layer="2606" to-port="0"/>
		<edge from-layer="2606" from-port="1" to-layer="2607" to-port="1"/>
		<edge from-layer="2607" from-port="2" to-layer="2616" to-port="0"/>
		<edge from-layer="2608" from-port="0" to-layer="2609" to-port="0"/>
		<edge from-layer="2609" from-port="1" to-layer="2616" to-port="1"/>
		<edge from-layer="2610" from-port="0" to-layer="2611" to-port="0"/>
		<edge from-layer="2611" from-port="1" to-layer="2616" to-port="2"/>
		<edge from-layer="2612" from-port="0" to-layer="2613" to-port="0"/>
		<edge from-layer="2613" from-port="1" to-layer="2616" to-port="3"/>
		<edge from-layer="2614" from-port="0" to-layer="2615" to-port="0"/>
		<edge from-layer="2615" from-port="1" to-layer="2616" to-port="4"/>
		<edge from-layer="2616" from-port="5" to-layer="2617" to-port="0"/>
		<edge from-layer="2617" from-port="2" to-layer="2619" to-port="0"/>
		<edge from-layer="2618" from-port="0" to-layer="2619" to-port="1"/>
		<edge from-layer="2619" from-port="2" to-layer="2622" to-port="0"/>
		<edge from-layer="2620" from-port="0" to-layer="2621" to-port="0"/>
		<edge from-layer="2621" from-port="1" to-layer="2622" to-port="1"/>
		<edge from-layer="2622" from-port="2" to-layer="2625" to-port="0"/>
		<edge from-layer="2623" from-port="0" to-layer="2624" to-port="0"/>
		<edge from-layer="2624" from-port="1" to-layer="2625" to-port="1"/>
		<edge from-layer="2625" from-port="2" to-layer="2634" to-port="0"/>
		<edge from-layer="2626" from-port="0" to-layer="2627" to-port="0"/>
		<edge from-layer="2627" from-port="1" to-layer="2634" to-port="1"/>
		<edge from-layer="2628" from-port="0" to-layer="2629" to-port="0"/>
		<edge from-layer="2629" from-port="1" to-layer="2634" to-port="2"/>
		<edge from-layer="2630" from-port="0" to-layer="2631" to-port="0"/>
		<edge from-layer="2631" from-port="1" to-layer="2634" to-port="3"/>
		<edge from-layer="2632" from-port="0" to-layer="2633" to-port="0"/>
		<edge from-layer="2633" from-port="1" to-layer="2634" to-port="4"/>
		<edge from-layer="2634" from-port="5" to-layer="2642" to-port="0"/>
		<edge from-layer="2635" from-port="0" to-layer="2636" to-port="0"/>
		<edge from-layer="2636" from-port="1" to-layer="2639" to-port="0"/>
		<edge from-layer="2637" from-port="0" to-layer="2638" to-port="0"/>
		<edge from-layer="2638" from-port="1" to-layer="2639" to-port="1"/>
		<edge from-layer="2639" from-port="2" to-layer="2641" to-port="0"/>
		<edge from-layer="2640" from-port="0" to-layer="2641" to-port="1"/>
		<edge from-layer="2641" from-port="2" to-layer="2642" to-port="1"/>
		<edge from-layer="2642" from-port="2" to-layer="2645" to-port="0"/>
		<edge from-layer="2643" from-port="0" to-layer="2644" to-port="0"/>
		<edge from-layer="2644" from-port="1" to-layer="2645" to-port="1"/>
		<edge from-layer="2645" from-port="2" to-layer="2648" to-port="0"/>
		<edge from-layer="2646" from-port="0" to-layer="2648" to-port="1"/>
		<edge from-layer="2647" from-port="0" to-layer="2648" to-port="2"/>
		<edge from-layer="2648" from-port="4" to-layer="2650" to-port="0"/>
		<edge from-layer="2648" from-port="3" to-layer="2653" to-port="0"/>
		<edge from-layer="2649" from-port="0" to-layer="2650" to-port="1"/>
		<edge from-layer="2650" from-port="2" to-layer="2651" to-port="0"/>
		<edge from-layer="2652" from-port="0" to-layer="2653" to-port="1"/>
		<edge from-layer="2653" from-port="2" to-layer="2654" to-port="0"/>
	</edges>
	<meta_data>
		<MO_version value="2022.1.0-6910-173f328c53d"/>
		<Runtime_version value="2022.1.0-6910-173f328c53d"/>
		<legacy_path value="False"/>
		<cli_parameters>
			<caffe_parser_path value="DIR"/>
			<compress_fp16 value="True"/>
			<data_type value="FP32"/>
			<disable_nhwc_to_nchw value="True"/>
			<disable_omitting_optional value="False"/>
			<disable_resnet_optimization value="False"/>
			<disable_weights_compression value="False"/>
			<enable_concat_optimization value="False"/>
			<enable_flattening_nested_params value="False"/>
			<enable_ssd_gluoncv value="False"/>
			<extensions value="DIR"/>
			<framework value="onnx"/>
			<freeze_placeholder_with_value value="{}"/>
			<generate_deprecated_IR_V7 value="False"/>
			<input value="input_ids,attention_mask,token_type_ids,position_ids"/>
			<input_model value="DIR/model.onnx"/>
			<input_model_is_text value="False"/>
			<input_shape value="[1,384],[1,384],[1,384],[1,384]"/>
			<k value="DIR/CustomLayersMapping.xml"/>
			<keep_shape_ops value="True"/>
			<layout value="input_ids(nc),attention_mask(nc),token_type_ids(nc),position_ids(nc)"/>
			<layout_values value="{'input_ids': {'source_layout': 'nc', 'target_layout': None, 'is_input': True}, 'attention_mask': {'source_layout': 'nc', 'target_layout': None, 'is_input': True}, 'token_type_ids': {'source_layout': 'nc', 'target_layout': None, 'is_input': True}, 'position_ids': {'source_layout': 'nc', 'target_layout': None, 'is_input': True}}"/>
			<legacy_ir_generation value="False"/>
			<legacy_mxnet_model value="False"/>
			<log_level value="ERROR"/>
			<mean_scale_values value="{}"/>
			<mean_values value="()"/>
			<model_name value="bert-small-uncased-whole-word-masking-squad-int8-0002"/>
			<output value="['output_s', 'output_e']"/>
			<output_dir value="DIR"/>
			<placeholder_data_types value="{}"/>
			<placeholder_shapes value="{'input_ids': (1, 384), 'attention_mask': (1, 384), 'token_type_ids': (1, 384), 'position_ids': (1, 384)}"/>
			<progress value="False"/>
			<remove_memory value="False"/>
			<remove_output_softmax value="False"/>
			<reverse_input_channels value="False"/>
			<save_params_from_nd value="False"/>
			<scale_values value="()"/>
			<silent value="False"/>
			<source_layout value="()"/>
			<static_shape value="False"/>
			<stream_output value="False"/>
			<target_layout value="()"/>
			<transform value=""/>
			<use_legacy_frontend value="False"/>
			<use_new_frontend value="False"/>
			<unset unset_cli_parameters="batch, counts, disable_fusing, disable_gfusing, finegrain_fusing, input_checkpoint, input_meta_graph, input_proto, input_symbol, mean_file, mean_file_offsets, move_to_preprocess, nd_prefix_name, pretrained_model_name, saved_model_dir, saved_model_tags, scale, tensorboard_logdir, tensorflow_custom_layer_libraries, tensorflow_custom_operations_config_update, tensorflow_object_detection_api_pipeline_config, tensorflow_use_custom_operations_config, transformations_config"/>
		</cli_parameters>
	</meta_data>
</net>
